agi_model.pth (torch, 285870 bytes, 48 tensors)

fc1.weight f4 [50, 10]
000000 ed 1a 66 be 07 5d 4a 3e 04 f8 b3 be ce 9f df be
       -0.22471209 0.1976205 -0.35150158 -0.4367661
000010 0b 2d be 3d 38 b6 2c 3d b2 d8 86 3e 60 d7 23 3c
       0.09285935 0.042165965 0.263372 0.01000008
000020 d0 24 0e be d8 83 99 bc ec a8 33 be 20 b5 ae 3e
       -0.1388123 -0.018739626 -0.17544907 0.34122562
000030 1d 3d 28 be e4 92 05 3f 9e 74 98 3e fe 96 a7 be
       -0.16429563 0.5217726 0.29776472 -0.32732385
000040 e1 a3 0e 3f ad ba 23 be df 07 98 3e 1f 2c b7 3e
       0.5571881 -0.1598918 0.29693505 0.3577585
000050 4e 21 df bd f4 17 df bd 04 cc 88 be 33 68 fe 3e
       -0.10895024 -0.108932406 -0.26718152 0.49688873
000060 03 fe 83 3e 81 21 c3 3e ee a0 69 be c3 22 10 be
       0.25779733 0.381115 -0.22815296 -0.1407576
000070 63 71 69 be 51 c4 69 bd 32 a6 5f be db 0c 9b 3e
       -0.2279716 -0.057071988 -0.21840742 0.30283245
000080 f0 54 bd bd 8c 17 cd 3e a3 ca 9b be f7 bd 4d be
       -0.09244716 0.40057027 -0.30428037 -0.20091997
000090 2e 2b f9 3e 72 e8 8c be b5 cb f4 be be 6f 9a bd
       0.48665756 -0.27521092 -0.47811666 -0.075408444
0000a0 f6 aa 60 be 28 85 43 bd 93 86 e9 3e 7a 85 70 3e
       -0.21940216 -0.04773441 0.45610484 0.23488417
0000b0 80 59 38 bc 9b 3c 9e be 30 9a d6 bc c0 ed 77 3c
       -0.011251807 -0.30905613 -0.02619657 0.015132368
0000c0 12 c5 ff be f0 e3 a3 3d 54 00 84 bc ca 9e 06 bf
       -0.4995504 0.0800246 -0.016113438 -0.5258604
0000d0 a0 4d ca be e2 50 df bd 26 7a 37 3e fa b9 f8 bd
       -0.39512348 -0.10904099 0.1791769 -0.12144847
0000e0 c6 0f 08 be e0 e2 62 bc f8 59 29 3e 16 09 7f be
       -0.13287267 -0.0138480365 0.16538227 -0.2490581
0000f0 17 e6 fc bd a5 c4 a3 3d ea fb 9c be 4f 7f 79 3d
       -0.12348574 0.07996491 -0.30660945 0.060912427
000100 52 73 67 3e 73 5c 11 3e 76 93 ff bd c6 3d 37 3e
       0.22602585 0.14195423 -0.12479298 0.17894658
000110 d9 0e f3 3e 0d ff 33 3b 74 53 88 3d 4d d6 af 3d
       0.47472265 0.0027465255 0.066565424 0.085857965
000120 88 7b 2d 3d a1 5b 08 3f dc ab 54 3e 00 08 a6 3b
       0.042354137 0.53264815 0.20768684 0.0050668716
000130 88 d3 6c 3d ce 3c 0b 3e 82 6b 28 bd 0e 88 10 3f
       0.05781892 0.13597414 -0.041118152 0.564576
000140 05 13 a6 3e 2e 80 c3 bd 7d ce d9 bd 14 9b a0 be
       0.32436386 -0.09545933 -0.10635088 -0.31368315
000150 46 c7 e6 bd 2a 04 75 be 6f 76 97 3e 9a 1b 73 be
       -0.11268477 -0.2392737 0.29582545 -0.23740998
000160 5f 39 20 be 8f c8 f5 3d f2 53 df 3e 77 3d ce 3d
       -0.15646885 0.12001144 0.43618733 0.10070317
000170 c6 a9 be bd c3 cd 90 be 04 01 6e 3e cb 92 12 3e
       -0.093097255 -0.28281984 0.23242575 0.1431381
000180 09 0b eb bd d2 c9 14 3e f1 99 aa bc 94 d3 d2 3e
       -0.11476714 0.14530113 -0.020825358 0.41177046
000190 4d 79 9f be ac 70 6a be bc 26 e0 3c 70 8e ff bc
       -0.31147233 -0.22894543 0.02736222 -0.03119585
0001a0 e0 04 67 be aa ff dd bc 94 54 97 3e 48 6b 50 be
       -0.22560453 -0.02709945 0.29556715 -0.20353425
0001b0 84 20 e3 3e 1e 53 c9 3e d6 ca 27 3e 33 6c 26 3e
       0.44360745 0.39321226 0.1638597 0.16252212
0001c0 86 b0 89 bd 9a 3a 8a 3e 39 e1 e8 3e 89 9e 94 3e
       -0.06723122 0.26997834 0.4548433 0.29027203
0001d0 9d bf 17 be 48 e5 b9 3d 67 8d 39 bf e1 27 93 3e
       -0.14819188 0.09076935 -0.7248139 0.28741363
0001e0 e5 1d ec 3e 61 91 fd 3d 8c 4c 04 3e 94 9f d0 3d
       0.46116558 0.123812445 0.12919825 0.10186687
0001f0 cf c4 36 3c 83 f1 0e 3b de 3a d6 bd 86 08 5e 3e
       0.011155321 0.0021811433 -0.10460447 0.21682939
000200 78 d6 a6 be 0a 67 8c be dc c7 77 bd 62 17 21 3e
       -0.32585502 -0.27422363 -0.060493335 0.15731576
000210 a1 05 18 be d8 25 97 bd 4c 5d 16 3f 3f 50 b5 be
       -0.14845897 -0.07380265 0.5873611 -0.35412785
000220 3e a2 dc 3d 01 a6 23 be 4d ba ec 3d 8e d3 e4 bd
       0.10773133 -0.15981294 0.115589716 -0.11173163
000230 60 5c 0a 3e 78 63 36 3d 20 0f a1 3c a4 ca a7 bd
       0.13511801 0.044528455 0.019660532 -0.081929475
000240 f0 71 0b 3e f8 21 6e bd af 64 9e be fb b7 8a 3e
       0.13617682 -0.058137864 -0.3093619 0.2709349
000250 9c d7 8d be 00 a0 b1 bb 0e fd a9 be 3e 2c 6d be
       -0.2770356 -0.005420685 -0.33200878 -0.23161408
000260 0a f1 53 3e e4 95 79 be d9 f8 c5 bd a6 c4 8d be
       0.20697418 -0.24373585 -0.096666045 -0.27689093
000270 c2 51 3c 3e 04 f6 8f bd f2 19 93 3e 61 2f 3c bd
       0.18390563 -0.07029346 0.28730732 -0.04594362
000280 80 3b 9d 3e c8 4b 95 3d 73 6b 4c bd 8e c1 6a be
       0.30709457 0.07289845 -0.04990716 -0.22925398
000290 52 cc 0d be d6 1c 9a be 10 e6 8b bd 2a 4d 66 3e
       -0.13847473 -0.30100125 -0.0683099 0.22490373
0002a0 27 83 f5 3d 30 5a 3a 3d e9 8d 80 3e a2 bf 68 3e
       0.11987906 0.045496166 0.2510827 0.22729352
0002b0 d0 b3 5c be 9d 71 82 be 06 c1 80 be be a1 8e be
       -0.21552968 -0.25477305 -0.25147265 -0.27857774
0002c0 88 a6 f7 bd c0 e5 05 3d 24 0d 44 be 30 bf 4b be
       -0.1209231 0.03268981 -0.19145638 -0.19897151
0002d0 a2 64 6d be ed c1 96 3e 90 f4 7a 3e c8 80 31 3f
       -0.2318292 0.2944483 0.24507356 0.6933713
0002e0 11 75 cf be 65 67 25 3e 66 21 6b 3d ec c7 07 be
       -0.40519002 0.16152723 0.057404898 -0.13259858
0002f0 21 18 0e bd 92 0d b9 3e 30 b8 5e be 3b 64 bb be
       -0.03469098 0.36143166 -0.2174995 -0.36599907
000300 e4 9f 1c bf b8 84 2e be ad dd a6 be 9b 1c bf be
       -0.61181474 -0.17042816 -0.32591 -0.37326512
000310 63 56 22 bf d4 64 9c be 10 14 f5 3e a7 07 92 be
       -0.63413066 -0.30545676 0.4786687 -0.28521463
000320 e0 ca a3 bd 16 13 b1 be 14 82 87 be 6d 8b 5e be
       -0.0799768 -0.34584874 -0.2646643 -0.21732874
000330 bf 01 63 3e c8 29 72 3e 14 b0 78 be ec f1 14 3e
       0.22168635 0.23648751 -0.24285918 0.14545411
000340 40 62 2b 3e 08 82 80 3e 09 14 72 be 27 4b 59 be
       0.16736698 0.25099206 -0.23640455 -0.21220075
000350 1d 47 8c be ae 3a a5 be 70 ec ab be 37 62 30 3e
       -0.27398005 -0.32271332 -0.33578825 0.17224966
000360 21 4b c1 be 3c c4 f6 3d 6c f7 07 be cd 01 b6 be
       -0.3775263 0.120491475 -0.13277978 -0.3554825
000370 74 32 9f 3e d8 32 7a 3e a3 76 a7 be 66 34 9b be
       0.3109318 0.24433458 -0.327077 -0.30313414
000380 50 0c d1 be 84 1b 14 3e f0 be 5a bd c6 07 92 bd
       -0.40829706 0.14463621 -0.05340475 -0.07130389
000390 8c 6b 59 3e 78 80 12 3e bd 6d 38 bc 91 67 6c 3d
       0.21232432 0.1430682 -0.011256632 0.057715956
0003a0 52 d6 54 3e 3e 3d 28 be 63 96 43 3c cb 90 ff be
       0.20784882 -0.16429612 0.01193771 -0.49915156
0003b0 19 41 d8 be 94 cf 8d be 7e 77 05 3e 39 ee aa bd
       -0.42237166 -0.27697432 0.13033864 -0.083462186
0003c0 1f 0c eb be d1 2e cd bd 0b 8f 25 3e 1b b3 bf 3e
       -0.45907685 -0.10018695 0.16167848 0.37441334
0003d0 4c 67 98 be 5b 7b 50 be c1 14 fe be 18 8a 5c bd
       -0.2976631 -0.20359556 -0.4962521 -0.053842634
0003e0 61 59 20 bf 56 09 34 be f9 7d 03 3e 29 b8 aa be
       -0.6263638 -0.17581686 0.12841024 -0.33343628
0003f0 04 66 f5 3d c4 bd 7b be b4 77 a7 3e 44 ea a6 3e
       0.119823486 -0.24584109 0.32708514 0.32600605

fc1.bias f4 [50]
000000 cb da 83 3e 09 2e b8 be e8 85 2a be 56 37 8c bd
       0.25752863 -0.35972622 -0.16652644 -0.06846492
000010 d1 83 c4 bc 63 7d ad 3d cb 6f d0 be b8 61 36 be
       -0.023988636 0.08471181 -0.4071029 -0.17810714
000020 4c 6f 0a bd 4c 49 f8 bd a0 af 9e be e2 6a e6 bd
       -0.033797547 -0.12123355 -0.30993366 -0.11250855
000030 12 7d 3c be 19 2a 1c be 4d 81 20 be 62 ba 31 bb
       -0.18407086 -0.15250434 -0.15674324 -0.002711915
000040 f0 7e 07 be 62 1c 84 be db 9b 63 3c 83 a9 9d 3d
       -0.13232017 -0.25802904 0.013892139 0.076983474
000050 48 22 5b be 6c 85 a2 3e 66 12 c9 bc 24 01 ba 3d
       -0.21399796 0.31742418 -0.024544906 0.09082249
000060 cd 87 ca 3e 15 59 8e be a9 2e 51 be 45 24 2f 3e
       0.39556733 -0.2780234 -0.20427956 0.1710368
000070 2b 10 c5 bd e0 2a f4 bc bb 14 8b be a8 9c 81 bd
       -0.096222244 -0.0298056 -0.27164254 -0.06328708
000080 22 48 63 3e 4b d4 9d 3d 97 4c 20 bd 2b c8 a5 3e
       0.22195485 0.07706507 -0.03913554 0.3237928
000090 34 11 91 bc f3 dd b6 be 0a e9 d9 bd a0 75 4e 3a
       -0.017708398 -0.3571621 -0.10640152 0.0007875804
0000a0 89 fa d2 3e aa be 23 3d e4 41 16 bd 55 07 aa 3d
       0.41206768 0.039976753 -0.036683932 0.0830218
0000b0 1b 17 2a 3e 63 5a 00 bf 04 c6 41 be 90 d2 7c be
       0.16610377 -0.5013792 -0.18923193 -0.24689698
0000c0 70 3b 79 be 03 0b 87 be
       -0.2433908 -0.2637559

fc2.weight f4 [100, 50]
000000 06 68 18 be df 8d 2d bd af f3 05 be d8 bb 70 bc
       -0.14883432 -0.042371627 -0.13081239 -0.014693223
000010 c9 75 b8 3b cd 68 7d 3e 58 91 56 be fc dc b8 bd
       0.0056292755 0.2474701 -0.20953882 -0.090265244
000020 50 cc 86 3e 0a a4 b6 3e f8 68 32 be 7a b0 85 3e
       0.26327753 0.35672027 -0.17422855 0.26111203
000030 82 1c 31 3e 8e 7a d0 bd d0 6f 79 bd 6d d9 84 be
       0.17296031 -0.101796255 -0.06089765 -0.25947133
000040 5a 77 dd 3e 98 d9 fc bd bc 4c ce bd 76 96 6d 3d
       0.4325512 -0.1234619 -0.1007323 0.05800482
000050 46 b7 ee bd 3a 9c 19 be de fe b1 3e 44 ad 8e 3d
       -0.116560504 -0.15001002 0.3476476 0.069666415
000060 76 f6 83 bd f6 14 f6 bc 7d 25 b9 3e 18 fe a4 bb
       -0.06443493 -0.030039292 0.36161414 -0.005035173
000070 fb 1c b2 3d 2c 6e 6b 3e 93 a2 23 3e 8f c3 07 be
       0.08696934 0.22991246 0.15979986 -0.13258193
000080 b6 c9 5a bd 78 6a e1 3a 01 90 3d 3e ee f4 80 be
       -0.053415023 0.0017197868 0.18511964 -0.25186867
000090 a7 35 3c be 8f ef 89 3c 4a 44 d6 3d 53 c3 35 3e
       -0.18379842 0.016837863 0.10462244 0.17750292
0000a0 d6 ab 84 3e 3d a1 94 3d 22 ff a9 be 37 25 69 3e
       0.2591235 0.07257316 -0.33202463 0.22768103
0000b0 16 e9 73 bc 17 10 c2 3e 55 3a 59 3e f0 8f 19 bd
       -0.014887115 0.379029 0.21213658 -0.037490785
0000c0 18 c9 d7 3c 4c 12 ff bd e7 dc c5 3d cb 2e 07 be
       0.026341006 -0.12454662 0.096612744 -0.13201444
0000d0 7b ae 05 bd 24 a4 73 3e e9 c8 57 bd 12 28 4f bd
       -0.0326371 0.23793083 -0.052681837 -0.050575323
0000e0 2e 62 16 be 98 2f a8 bd b5 30 8c be 66 53 9b bd
       -0.1468589 -0.08212203 -0.2738091 -0.07584266
0000f0 26 b5 8d bd 63 c1 1f bd 8f 88 4c 3e b6 9b 73 bd
       -0.06919317 -0.039002787 0.19973968 -0.05947467
000100 d0 1b 0e 3d 59 4a 03 be 94 64 15 3a 8c 54 95 3d
       0.034694493 -0.1282133 0.0005698886 0.07291517
000110 47 ea 1f 3e 43 e7 c5 bd d0 f8 ca 3d e5 06 bb be
       0.15616713 -0.0966325 0.099107385 -0.36528698
000120 a1 36 5f 3e ab 9a 55 3e 9e 72 31 3d 87 e6 c5 bd
       0.21798183 0.20859782 0.043322198 -0.0966311
000130 ad 66 25 3e 4c 50 21 bd a7 b3 43 3d 47 43 3a be
       0.16152449 -0.039383218 0.04777875 -0.18189727
000140 3c f8 16 be 16 e3 d3 3d 15 c6 20 3e 66 59 a4 bd
       -0.14743131 0.103460476 0.15700562 -0.08024864
000150 d5 3a d0 bd f3 83 e2 bc a8 39 60 be 7d f6 2c 3e
       -0.10167471 -0.027650809 -0.21896994 0.16890903
000160 8e 76 33 be dd ab 74 3e c2 36 8d bd 97 57 0c 3e
       -0.17525694 0.23893686 -0.0689521 0.13705288
000170 1e b1 bd 3d 26 3d 38 be 5d 4b bc be 06 ef b9 be
       0.09262298 -0.17992076 -0.36776248 -0.36315173
000180 8d 82 73 be 2c 50 73 3d 90 b5 bf bd 51 1f 6c be
       -0.2378027 0.05940263 -0.09360802 -0.23058821
000190 fb 2d 61 bd 39 d5 6a bd 99 c9 54 be 84 17 95 bd
       -0.05497549 -0.05733225 -0.20780028 -0.07279876
0001a0 08 5e fa 3e 0b 94 4a 3d 5a d7 0a 3e 72 d8 50 be
       0.48899865 0.04945759 0.13558713 -0.20395067
0001b0 2b ca 0f 3e 04 ff 0a be 61 9f 33 be b9 2d 6f be
       0.14041965 -0.13573843 -0.17541267 -0.23357286
0001c0 3c e5 a7 3b 08 28 35 3d 94 1d ca 3d f3 c3 ab 3e
       0.0051237624 0.04422763 0.09868923 0.33547935
0001d0 98 b0 a6 3d 88 ec 4a 3d d5 8e 94 3e 25 f9 5a 3d
       0.08139151 0.04954198 0.29015222 0.05346026
0001e0 12 ac 23 3d ed 43 02 3e bb 65 0e 3d 0b 6a 82 3e
       0.03995902 0.12721224 0.034764986 0.2547153
0001f0 f9 eb 47 3e 79 0c de 3c 53 67 ae 3c d3 a0 94 be
       0.1952361 0.027105557 0.021289503 -0.2902895
000200 9f 33 38 bd 66 6e d3 3e 83 a9 21 be 97 e3 0b 3e
       -0.044971105 0.41295165 -0.1578732 0.13661037
000210 6b 20 a0 be 2a d0 03 bc b7 1b c3 bd 4d c7 5b 3e
       -0.31274733 -0.008045236 -0.095267706 0.21462746
000220 90 b8 cf 3e 19 0b ec 3d c4 42 4f 3e 34 ff 54 be
       0.40570498 0.11525554 0.20240313 -0.20800477
000230 66 94 a0 be 83 a9 88 3b 6a a3 8a be de 56 72 3e
       -0.3136322 0.004170598 -0.270778 0.2366595
000240 97 4e 7b 3d d0 3d b0 be 6b 60 18 3e f7 e2 0e 3e
       0.061354246 -0.3442216 0.1488053 0.13953768
000250 ae 39 db bd 84 63 8d bd 6c f2 53 be 11 92 e5 3d
       -0.10704361 -0.06903747 -0.20697945 0.112095006
000260 f3 9d e1 3e 93 f5 10 3e c8 3c 2c bd 53 cb ff bd
       0.44065818 0.14156179 -0.042050153 -0.12489953
000270 fa a3 6f bd 3b f5 19 3e d8 90 36 3d 8d 52 40 bd
       -0.05850599 0.15034954 0.044571728 -0.046953727
000280 8f 38 48 3d 33 ef 4f 3e d8 e3 72 3e 54 58 76 bd
       0.048882063 0.20306091 0.23719728 -0.06014283
000290 ce 56 b9 bd e5 62 38 bd 4a fa 3b 3d 6c e9 87 3d
       -0.0904976 -0.04501619 0.04589299 0.066363186
0002a0 83 17 96 3e f8 76 a0 3d 38 5e 81 be a4 59 e4 bb
       0.29314813 0.078351915 -0.25267196 -0.006968694
0002b0 bd 92 73 bd cc b6 0f be 04 04 75 3e 20 e7 f1 bd
       -0.059466112 -0.14034575 0.23927313 -0.11811662
0002c0 a2 bc c1 3d 8d 7e ad 3d 4b 0d 4a be f6 5a 06 bd
       0.09459807 0.08471403 -0.19731633 -0.03280159
0002d0 41 da c1 bd b8 62 87 3d cd 83 4a bd 44 18 39 3d
       -0.09465457 0.06610626 -0.0494421 0.045189157
0002e0 4b 0f ad 3d c5 5a ed bc 87 77 81 be 37 32 5a 3e
       0.084501825 -0.028973946 -0.25286505 0.21308218
0002f0 46 88 8c b9 d2 c6 1c 3d d8 a9 62 bc ea 4e 9e 3d
       -0.00026804412 0.038275547 -0.013834439 0.077298954
000300 5e 95 2b 3d 79 af 57 bd 77 9b 2f 3e 24 1f 6f bd
       0.041890495 -0.05265758 0.17149149 -0.058379307
000310 a0 0e a5 ba c0 04 07 bb c7 d3 0f 3e b8 42 51 3e
       -0.001259286 -0.0020602196 0.1404563 0.20435607
000320 41 63 8c 3e de ab 40 3f fe 58 02 be d2 62 69 be
       0.27419475 0.7526225 -0.1272926 -0.22791603
000330 fc 85 06 3e da cd 60 be 98 68 8e 3e 33 f7 73 3e
       0.13137048 -0.21953526 0.27814174 0.23824768
000340 7d c3 fa bd 6f 71 2e 3e 57 b1 5e be 6a e1 7f 3e
       -0.12244318 0.17035459 -0.21747337 0.24988332
000350 9c 6e 51 3e 37 2d 31 3f 80 a3 8f 3a ec 88 f1 bd
       0.2045235 0.6920962 0.0010958761 -0.11793694
000360 a3 1d bf be e0 89 7a 3d 75 34 88 bd 7b 65 d9 be
       -0.373273 0.061166644 -0.066506304 -0.42460236
000370 4a be a8 be 32 f5 be bd 7d 53 80 bd 69 25 86 3e
       -0.3295768 -0.09324111 -0.06265924 0.26200417
000380 91 76 f0 bd eb ab a4 be 64 36 94 3e 94 c2 8a be
       -0.11741365 -0.32162413 0.28947747 -0.27101576
000390 30 69 5b bd 97 f6 36 bd a7 5c 1b 3e c0 d9 44 3c
       -0.05356711 -0.04466876 0.15172063 0.012014806
0003a0 24 5e 34 be ca 68 79 3e 73 a5 8b 3e 24 e7 87 3c
       -0.17614037 0.2435638 0.27274665 0.016589709
0003b0 39 5f 80 bc 4a aa ce be 6e 1b ad 3e 79 28 a6 be
       -0.015670406 -0.40364295 0.3380999 -0.32452753
0003c0 a5 1b de 3d d7 a1 92 3e 38 8f e7 3d f3 0a 48 be
       0.108451165 0.286391 0.11306614 -0.19535427
0003d0 af 66 2f 3c c2 26 90 be 81 bb aa be 92 b0 df 3d
       0.010705634 -0.2815457 -0.3334618 0.1092235
0003e0 e0 42 c4 3c f4 00 c8 3d ff c2 02 be 40 01 40 3e
       0.02395767 0.09765807 -0.12769698 0.18750477
0003f0 6c 6f db 3e ae ca 98 3d 35 91 57 3e cc b9 f7 bd
       0.42858446 0.07460533 0.21051486 -0.12095985

fc2.bias f4 [100]
000000 9a 5a 8c 3d 25 74 00 3e 1a 23 fa 3c fe f7 c9 bc
       0.068532184 0.12544306 0.030534316 -0.024654385
000010 0e de 98 3d 42 b9 97 bd 69 03 5b 3e 5f a4 64 3d
       0.074642286 -0.07408382 0.2138802 0.05582082
000020 13 a0 a8 3d 39 dd 23 3d 7a e4 44 3e 5f d9 a2 3d
       0.08233657 0.040005896 0.19227782 0.079516165
000030 83 2f 25 3d f1 e6 32 bd 32 77 8d 3d 7c 8b c6 bc
       0.040328514 -0.043677274 0.069075 -0.024236433
000040 2e 4f 0c 3d 72 d4 7e 3d cb 0d 97 3d 4a 87 4e bd
       0.0342552 0.062214322 0.07375678 -0.05042199
000050 47 26 50 3e ff 29 44 3d 40 a9 ec 3d 75 6f a9 bd
       0.20327102 0.047891613 0.115557194 -0.08273212
000060 72 f6 8a bd 4d 17 e1 3d d8 20 1a bd 71 73 31 3c
       -0.06785287 0.109907724 -0.03762898 0.010830746
000070 10 79 b6 bb a6 7c 58 3d 31 08 98 3d 2b 21 04 3e
       -0.005568631 0.05285325 0.074234374 0.12903278
000080 82 69 cf 3d 7b fe 99 3d 70 c6 db ba 02 8c c3 3d
       0.10127546 0.075192414 -0.0016767513 0.09548189
000090 28 73 44 bc be a6 2f bc 20 df f9 3d b1 0f 1f bd
       -0.011990346 -0.010720907 0.12200761 -0.038833324
0000a0 13 ee f9 3d ce b4 3f bd 5c 64 a3 3d 78 e4 69 bc
       0.12203612 -0.04680329 0.079781264 -0.014275663
0000b0 d7 3f 0c 3e f8 af 9a 3d ee ca 9f bd fb f8 d7 3d
       0.13696228 0.075530946 -0.07802378 0.10545536
0000c0 98 c9 f3 3d 15 94 66 3c c8 5b 5b bc 66 4f 75 3d
       0.11903685 0.014073391 -0.013388582 0.059890173
0000d0 23 dc da 3d c4 0c 17 3b b6 20 a2 bd 8b f0 75 3e
       0.10686519 0.002304838 -0.07916395 0.24017541
0000e0 7a 7b b5 bc d2 d2 79 3d 0f 8e d3 3c 90 32 5a bd
       -0.022153605 0.06099207 0.025824575 -0.053270876
0000f0 51 7a 40 3e 40 0e c5 bc b3 64 14 3d 1b b7 a2 3d
       0.1879666 -0.024054646 0.036228847 0.07945081
000100 5e 50 e2 bd 37 54 14 3e 03 28 87 bc ea 6b 83 3d
       -0.11050485 0.1448525 -0.016498571 0.06417067
000110 c6 cd 45 3c 80 31 6c 3d 31 52 c6 3d 14 0c 7c 3d
       0.012072986 0.057664394 0.096836455 0.061534956
000120 4e d9 46 3e 9c 05 0e 3b f8 ab 7f bd a0 53 de bc
       0.19418833 0.0021670824 -0.06241986 -0.027139485
000130 af 39 55 bd 62 b2 ad bd 5e d1 00 3d 63 c6 c9 3c
       -0.052056964 -0.084812894 0.031449668 0.024630731
000140 1e 1b 8f 3d 97 ab ac 3d 90 4f f2 3a 85 2d 9a 3d
       0.06987594 0.08431166 0.0018486846 0.075282134
000150 6c 6f c7 3c 88 2b 8e 3d 17 23 11 3e ef a3 92 bd
       0.024345122 0.06941897 0.14173542 -0.07160174
000160 a8 4d c3 3d 49 47 4e 3d 45 a2 05 3e b8 95 f6 bc
       0.09536296 0.05036095 0.13050182 -0.030100688
000170 ea 5a 99 bc 33 56 4e bd 78 68 73 3c 22 96 65 3d
       -0.018720109 -0.050375175 0.01485645 0.05605138
000180 7a c1 f0 3d 0c 2b bd bc 77 e5 b1 3d 84 82 40 bd
       0.11755653 -0.023091815 0.08686345 -0.04699947

fc1.weight f4 [50, 10]
000000 f3 ce e4 3d 57 01 9a be 9b f4 c7 bd a7 81 6b be
       0.11172285 -0.30079147 -0.09763452 -0.22998677
000010 a2 97 8b 3e c8 c0 c5 3e 3f 7a 8b bd dd a9 01 3e
       0.27264124 0.38623643 -0.06810426 0.12662454
000020 57 a4 eb 3d 9d 02 b3 be e7 48 64 be e8 cf 26 3e
       0.11505955 -0.3496293 -0.22293435 0.16290247
000030 f0 e1 bd 3e 78 9f 59 be c2 41 b5 be ea 21 3c 3c
       0.3708644 -0.21252239 -0.35401732 0.011482695
000040 a5 b2 76 3e cc 39 26 3e 53 2b 30 3e b2 bf 44 bd
       0.24091585 0.16232985 0.17204027 -0.048034377
000050 ca c5 30 bd 47 f1 6f 3c 0a 18 9a bc 03 d0 d1 3a
       -0.043157376 0.014644927 -0.01881029 0.0016007427
000060 27 45 9c be d6 3d 86 3d 0f 2b b3 3d 95 eb 42 be
       -0.3052151 0.06554763 0.08748447 -0.1903518
000070 66 82 0e 3d 4e c4 bc be 0b d2 fd 3b ed 57 89 3c
       0.034792326 -0.3686852 0.0077459863 0.01676556
000080 af 30 81 be 44 73 44 3d 66 4b 5c be 53 28 f7 bd
       -0.25232455 0.04796149 -0.21513137 -0.12068238
000090 24 85 46 be 91 d1 5c be 15 3a 5a be cc 37 cc bd
       -0.19386727 -0.21564318 -0.21311219 -0.0997158
0000a0 df e0 16 3e d8 4e dd bd 6e eb b9 bd 03 ac 17 be
       0.14734219 -0.10806054 -0.09078108 -0.14811711
0000b0 33 cc 07 3e d0 3f 67 bd 7c 95 86 3d ef 35 11 3e
       0.1326149 -0.05645734 0.06571481 0.1418073
0000c0 48 75 6b be 84 03 6c 3d 0d 36 b3 bd 80 c6 eb 3e
       -0.22993958 0.05762054 -0.08750544 0.4604988
0000d0 ef f1 ba 3e bc 88 a6 bd 85 c9 24 be 17 22 47 be
       0.36512706 -0.08131549 -0.16092499 -0.19446598
0000e0 b0 76 f5 3e 1b 00 3d bc c4 57 10 bf 4f 16 82 3e
       0.47942114 -0.01153567 -0.5638392 0.25407645
0000f0 42 6a d7 be 85 00 1a bd 8a f7 6e be 0c ae f0 be
       -0.42073256 -0.03759815 -0.23336616 -0.47007787
000100 bd 8a 98 be e6 52 3b 3e 60 5d ae bd 96 9f 64 bc
       -0.2979335 0.18293342 -0.085139036 -0.013954064
000110 38 04 db 3d 52 db c4 be 06 dd c8 3e e9 25 9e be
       0.10694164 -0.38448578 0.39231128 -0.30888298
000120 2d 82 11 be 50 5b 26 be e5 62 af bd b6 30 86 3e
       -0.14209814 -0.1624577 -0.085637845 0.26209038
000130 cc 6d 37 bb 06 34 0b 3e 23 21 30 be a0 a4 02 3f
       -0.0027989028 0.13594064 -0.1720014 0.5103245
000140 96 ca 04 3e 8e 76 9f 3d ee de 26 be 3b 71 56 be
       0.12967905 0.077862844 -0.16295978 -0.20941631
000150 93 63 26 be 94 08 87 bd cc a6 76 be f2 ba 44 3e
       -0.16248922 -0.06593433 -0.24087065 0.19211939
000160 36 c5 e0 3c e2 88 18 be 4b a1 9a bd d8 16 bb be
       0.027437788 -0.14895967 -0.075502954 -0.36540866
000170 bc d3 00 bd dc 3a c5 3e 67 b6 9d be 1b d1 8c 3e
       -0.031451926 0.3852147 -0.30803224 0.27503285
000180 b5 a7 b0 3e 92 a9 7c be a8 63 c2 3d 6f d0 ea 3e
       0.3450295 -0.24674061 0.09491664 0.45862147
000190 78 ca 83 3e 42 0b ab be a7 48 b3 3e 9c 66 99 3e
       0.2574041 -0.33407027 0.35016367 0.29961097
0001a0 2c 5d a7 be 8f 87 32 bd ee d1 85 3d 6a 17 12 3e
       -0.32688272 -0.04358631 0.065341815 0.14266744
0001b0 4f d9 30 bf f7 04 fd 3d ea d8 cf bd d7 d2 7d be
       -0.69081587 0.123544626 -0.10148795 -0.2478746
0001c0 fe ef fc be ae 2e ba bd 79 6b 59 be b5 9b c1 be
       -0.4940185 -0.09090935 -0.21232404 -0.37814108
0001d0 be 20 47 be 40 f4 00 3d ff 40 86 3e a3 69 04 be
       -0.19446084 0.031482935 0.26221463 -0.12930922
0001e0 f5 36 80 3e 39 a0 92 be 7c 7b 81 be a0 f7 a6 be
       0.2504193 -0.28637865 -0.25289524 -0.32610798
0001f0 5b 96 29 be 92 8d b9 3c ba f2 76 be 09 40 8c 3d
       -0.16561262 0.022650514 -0.2411603 0.06848151
000200 14 36 d4 be 7f 8f f7 3e bd 2f ec bd 61 5f 3a be
       -0.41447508 0.48351666 -0.11532543 -0.18200447
000210 18 8f 72 3e fd f6 3c 3e b7 4c fb 3c 1c 2d be be
       0.23687398 0.18453594 0.030676229 -0.3714379
000220 2e 82 82 be 3a ff 49 3e f2 72 ce 3d 2a b4 7c 3e
       -0.25489944 0.19726267 0.10080518 0.24678102
000230 19 3f d3 3e 58 61 b6 be 8c 04 e6 bd 21 42 b5 bd
       0.41259077 -0.35621142 -0.11231336 -0.08850504
000240 f7 ef 9f 3e 59 4b df 3d 48 49 d2 3e 78 76 64 be
       0.31237766 0.10903043 0.41071534 -0.22310817
000250 98 cf e3 3e 05 1d 0b be 6d bd 8b 3d d3 6a 30 bd
       0.4449432 -0.13585289 0.068232395 -0.043070626
000260 bf 7c 21 be 37 db 36 be d6 c5 d2 bd c0 6e 54 be
       -0.15770243 -0.17857061 -0.102916405 -0.20745373
000270 28 bc 8e 3d 62 51 f9 bd af 85 b9 3d eb e9 e4 bd
       0.06969482 -0.12173726 0.09058701 -0.11177429
000280 d9 71 bd be 64 7c b3 be 65 0f a7 be 27 07 84 be
       -0.3700092 -0.3505584 -0.32628933 -0.25786707
000290 67 87 be 3d c9 16 18 be cc 27 cf 3e eb ad 2c 3d
       0.0930317 -0.14852442 0.4046005 0.04215805
0002a0 ac 19 9e be 5f 23 a2 bd f4 94 d0 be 4c 6e 60 be
       -0.3087896 -0.07916903 -0.40738642 -0.21917075
0002b0 ef 47 8e bd 83 f5 53 be fc fe 58 be f9 18 88 3d
       -0.06947314 -0.20699124 -0.21191019 0.06645388
0002c0 06 57 ed bd 4b 05 6c 3e 3c 79 bb be 39 ee 85 3e
       -0.11588864 0.23048894 -0.36615932 0.26158312
0002d0 97 31 0f 3f 7c 60 8a 3e c5 39 e5 bd 33 45 88 3d
       0.55935043 0.27026737 -0.11192659 0.06653824
0002e0 d0 6f 84 3b 06 50 78 be cf e1 0c 3f 01 f2 76 be
       0.0040416494 -0.24249277 0.55032057 -0.24115755
0002f0 c6 50 17 bf 2a 90 07 3d fb 5b 2c 3c fa f0 de bd
       -0.59107625 0.03309647 0.010519977 -0.108858064
000300 a6 99 ea 3d 81 3d b2 3e e5 bb 94 3e a1 ab f3 bc
       0.11455087 0.3481255 0.29049602 -0.029744925
000310 3d ab 40 be 2c 65 6c be e6 35 1b 3d 3c ab 8b 3d
       -0.18815322 -0.23085469 0.0378932 0.0681977
000320 56 e9 3c be ca c2 25 bd 8d ea c7 bd 38 77 bf 3e
       -0.18448386 -0.04046897 -0.09761534 0.37395644
000330 97 44 aa 3d d9 45 0c 3c 40 49 2b be 73 a9 df bd
       0.08313864 0.008561575 -0.16727161 -0.10920992
000340 5f 58 eb 3d 03 00 3e be d9 99 13 bd ca 85 85 3e
       0.11491465 -0.18554692 -0.036035392 0.26078635
000350 28 31 7a 3e 18 13 81 3d 04 f8 1c 3e 02 f5 98 3e
       0.24432814 0.0630247 0.15328985 0.29874426
000360 8c 1f 26 bd 0c db 9b bd 17 3a 73 3e bd b5 ad be
       -0.04055743 -0.07610139 0.23752628 -0.33927718
000370 80 4a 33 3e e8 86 2c ba ad 26 72 be 7f 03 9a 3e
       0.17508888 -0.0006581382 -0.23647566 0.30080792
000380 d3 d5 a8 3e 8a e6 7b 3e ea 2a 2a be a0 5a a3 3d
       0.32975635 0.24599662 -0.16617933 0.0797627
000390 ec 57 18 bf 57 7a 20 be 95 b4 96 bd 6c e4 cf 3c
       -0.5950916 -0.15671669 -0.07358662 0.025377475
0003a0 e4 64 c3 3e 58 c5 d5 3d e1 8c 31 3e c0 dd 2c be
       0.3816291 0.10438031 0.17338897 -0.16881466
0003b0 66 a9 86 3e ef 74 ef bd 6c e6 d2 3d 31 59 2d be
       0.26301116 -0.11692225 0.10297856 -0.16928555
0003c0 51 2b d3 3e 97 c5 23 3d 40 b2 01 bd 15 8a b2 be
       0.41243985 0.03998336 -0.031664133 -0.34870973
0003d0 5e 52 f3 3d a7 c2 21 3e 92 43 0b 3e 7b a3 4c be
       0.11880945 0.1579691 0.13599995 -0.19984238
0003e0 02 5f dc bd 2e 21 18 be a5 fa 1e 3e 83 65 47 3e
       -0.10760309 -0.14856407 0.15525301 0.19472317
0003f0 8d 6c a9 3e dc 1b 82 be 8f be 94 3e 7e f5 da be
       0.3309063 -0.2541188 0.29051635 -0.4276542

fc1.bias f4 [50]
000000 29 b0 0c be 45 45 74 bd ec 90 c8 3d 68 b0 db bd
       -0.13739075 -0.059636373 0.09793267 -0.10727006
000010 97 58 8d be 03 f6 11 bd 97 28 4d 3e 2d e4 38 bd
       -0.2760665 -0.035635006 0.20035015 -0.04513948
000020 03 c8 77 be 8d 01 0f be dc e6 85 3e 29 64 14 3e
       -0.24197392 -0.13965435 0.26152694 0.14491333
000030 0f 11 6e 3e c7 d0 93 3d 19 f7 f6 be 38 70 99 be
       0.23248695 0.072175555 -0.48235396 -0.2996843
000040 e4 41 96 3e 95 dc a1 3e 07 e3 0e bd 4d 4c ff bc
       0.29347146 0.31613603 -0.03488448 -0.031164313
000050 1e 24 01 be 27 5e 90 be 74 1f 78 bd fd 7f 44 be
       -0.12611434 -0.28196833 -0.06057687 -0.19189449
000060 a9 e7 fa 3a b0 e6 ac be 89 d5 d1 bc ea 25 29 3e
       0.0019142526 -0.3376975 -0.025614517 0.1651837
000070 7e df d1 bd 6b 47 d9 be b9 03 c7 be 68 3b f0 bd
       -0.10247706 -0.424373 -0.38870028 -0.11730081
000080 8f 9f 3b bd 1f 23 9d bd 5f ef 92 3e 71 f5 ab be
       -0.045806464 -0.076727144 0.2869825 -0.33585694
000090 7d a4 1d be 95 f7 a5 bc 46 20 f5 bb 15 c1 36 be
       -0.15394779 -0.020259658 -0.007480654 -0.17847092
0000a0 f5 65 40 be 4f 54 aa 3d 1b 8d d3 3c ae eb d4 3d
       -0.18788894 0.08316862 0.02582412 0.10396515
0000b0 e8 56 1b 3d d4 80 25 bd 0a 42 0c bd 63 48 fd bd
       0.037924677 -0.040406063 -0.034242667 -0.12367322
0000c0 72 d1 69 bc 38 6c 36 bd
       -0.014271127 -0.0445368

fc2.weight f4 [100, 50]
000000 ba 3b 62 bc d3 17 15 bd c0 2c 91 3d e0 a3 0e 3d
       -0.013808185 -0.036399674 0.070886135 0.034824252
000010 3d 19 0d bd 34 13 4c be c0 b5 0a be c1 14 94 3e
       -0.034447897 -0.199292 -0.13545895 0.28922084
000020 83 32 bb 3d 06 07 0f be 20 23 c6 3d 04 bb 41 3e
       0.09140494 -0.13967523 0.09674668 0.18918997
000030 e5 e3 c2 3e 27 b9 eb 3d 9b 69 74 3e ad 00 97 bc
       0.38064495 0.115099244 0.2386841 -0.01843294
000040 65 f5 56 be 88 e8 35 be ea f6 9a 3e 2d ae 54 bd
       -0.20992048 -0.17764485 0.30266505 -0.05192392
000050 f9 a6 29 be 83 6e 8d bd 71 40 03 be e4 60 33 be
       -0.16567601 -0.06905844 -0.12817551 -0.1751743
000060 48 a4 a6 3e 91 ef 91 3d 4b 0b 0f 3e ea 0a 77 3c
       0.32547212 0.07125772 0.13969152 0.015078286
000070 4b 28 de 3c db e3 bd bd e4 78 c5 3e 38 df 77 3d
       0.027118823 -0.092719756 0.38568795 0.060515612
000080 45 e5 5f be 57 b0 48 be cd 62 67 be a5 f5 76 bd
       -0.21864803 -0.19598518 -0.22596283 -0.06029286
000090 fa 08 03 3e dc 14 38 3e 1b 70 96 be 50 01 92 3e
       0.12796393 0.17976707 -0.29382405 0.28516626
0000a0 1a 3e 48 bc ab ff 2a be 63 11 91 3e 7b 9e fa 3e
       -0.012221837 -0.16699092 0.28333578 0.48949036
0000b0 a9 44 a0 3e 1c 5d 83 3e 25 e9 85 bd a8 2b 1f 3d
       0.31302384 0.25656974 -0.065386094 0.038859993
0000c0 d9 79 81 be 7f 94 bc 3c 24 48 2e bd dc 17 f9 3d
       -0.25288275 0.023020027 -0.042549267 0.12162754
0000d0 6b 4a 37 3d 52 d1 c9 3d 8a d0 fb 3c f0 ec d4 3e
       0.044748705 0.09854378 0.030739088 0.4158702
0000e0 fb 62 17 3e 8a 6e 0f bc 71 09 49 bd 8a 7d b3 3d
       0.14783852 -0.008754382 -0.04908127 0.08764179
0000f0 fb 55 5e be 0a e0 6b bd ce 10 49 be e8 43 16 bd
       -0.21712486 -0.057586707 -0.19635317 -0.036685854
000100 48 34 29 3e ae 5e 1f bd 0f 51 2f be 76 27 18 3e
       0.1652385 -0.038908653 -0.17120765 0.14858803
000110 67 3a 72 3e 43 63 d1 bd 4f 27 b0 bd 1d 94 40 be
       0.23655091 -0.10224011 -0.086012475 -0.188065
000120 14 17 b4 3d 8b 94 2e bd 6e 97 2c 3d 25 8a 3e be
       0.08793464 -0.04262213 0.042136602 -0.18607385
000130 c2 af 9a bc ae 97 04 be 04 ed f5 bd b4 da 1f bd
       -0.018882636 -0.12948486 -0.12008098 -0.03902693
000140 72 87 80 be 41 e7 cd 3c e1 4e f3 bd 45 32 81 3e
       -0.25103337 0.025134685 -0.11880279 0.25233665
000150 e2 ed 1d 3e e5 fd c1 3c 5d e2 da bc 25 fd ab bd
       0.15422776 0.023680637 -0.026719267 -0.08397893
000160 e3 aa 9a bc c3 47 cd bc 09 b9 64 3e 59 71 49 bd
       -0.018880313 -0.025058633 0.2233621 -0.049180362
000170 67 8b b6 bc 4e 01 4c bd 83 32 70 3d 2c 9c a6 3d
       -0.02228327 -0.04980593 0.05864192 0.08135256
000180 9a 32 71 bc 8c ab 96 3d 24 be 86 bd 74 4b e3 be
       -0.014721537 0.07356939 -0.06579235 -0.44393504
000190 26 c0 45 be bc 1f ee 3d a5 06 e4 bd ce 06 6b 3d
       -0.1931158 0.116271466 -0.1113408 0.057379536
0001a0 7f 92 fd 3d 4e 48 f2 3d 18 e0 2a be ea 00 00 be
       0.123814575 0.11830197 -0.16687047 -0.12500349
0001b0 51 03 55 bc 5d 0b ea bc 3c fb fe 3e b2 00 f9 3c
       -0.013001279 -0.028569872 0.49801052 0.03039584
0001c0 9e 8e 9e be 83 fe d0 3d ab 53 11 3e 5e fc 64 3d
       -0.30968183 0.10204794 0.14192073 0.05590474
0001d0 17 93 8e be b5 94 59 3e 41 0f 00 be 86 ac 5d 3e
       -0.27846596 0.21248133 -0.12505819 0.21647844
0001e0 bd 9f 0f be 81 e4 bf bd a6 e2 c8 bc b5 73 6d 3e
       -0.14025779 -0.093697555 -0.024522137 0.2318867
0001f0 bb e3 0b 3e 13 45 b2 be 23 3a b2 3e ac 8b 9f be
       0.13661091 -0.34818324 0.3480998 -0.3116125
000200 99 bd 7c 3e e2 fe 3d 3e 0b 32 39 3e e3 66 23 3d
       0.24681701 0.18554261 0.18085496 0.039893042
000210 e5 03 b8 3a 1e 68 47 3c 90 3d 8d 3e 05 3e 37 3d
       0.0014039247 0.01217082 0.2758603 0.04473688
000220 3f 60 ce 3d ec 28 2f be 11 fe af bd f0 90 39 3d
       0.10076951 -0.17105454 -0.08593381 0.04530424
000230 df 8d c9 b9 8a 86 e3 bd 9c f2 7e bb 8d fe 7d bd
       -0.0003844341 -0.11109646 -0.003890193 -0.062010337
000240 e2 59 1f be 53 b2 e4 3c ea 4a 99 3d fd be 36 3d
       -0.15561631 0.027917063 0.07484992 0.044615734
000250 e9 e6 88 3d 8f 6b 13 3f ae 9d 4f be 07 f5 1d be
       0.066846676 0.57585996 -0.20274994 -0.15425502
000260 cd 6c e3 3d e5 d3 c2 bd 6f e2 73 bd 4c 05 dc bd
       0.111047365 -0.09513072 -0.059542116 -0.10743198
000270 a5 96 de bd 7c eb c0 3d 2d d1 db 3d 91 c0 06 3e
       -0.10868577 0.09419915 0.107332565 0.13159396
000280 fe 74 4f 3e cb d2 d1 bd c9 b0 b5 be d7 93 91 bd
       0.20259473 -0.10245284 -0.3548644 -0.07108276
000290 4a 46 f4 3d b1 bd 10 be b5 8c 30 bd d1 7e 13 3d
       0.11927469 -0.14134862 -0.04310294 0.036009613
0002a0 bc 9d 1c be 22 ef 07 3e d4 a1 4c 3e be 7c 59 bd
       -0.15294546 0.13274816 0.19983608 -0.05309748
0002b0 3e 69 56 3e 92 71 80 bd 58 0d 9f bd bd a2 4b 3d
       0.20938584 -0.06271662 -0.07766217 0.049715746
0002c0 81 5f f5 bd 22 95 ee 3d fb 43 e7 3d dc 57 3b be
       -0.119811065 0.116495386 0.11292263 -0.18295234
0002d0 0d c3 33 be ed 35 f9 bd 22 38 a5 3e 5c d4 4d 3e
       -0.17554875 -0.12168489 0.32269388 0.2010054
0002e0 f3 c4 2a be 84 1b c9 3d f6 e1 0b be e5 d9 1c 3c
       -0.16676693 0.09819701 -0.13660416 0.0095734345
0002f0 aa cc 58 bd ed f1 b6 bc c2 41 05 be 16 6e ba 3d
       -0.052929558 -0.022332156 -0.13013366 0.091030285
000300 23 c3 f4 bd c9 94 0a bd e1 fe 85 3e bb 6a 6b 3e
       -0.11951282 -0.0338333 0.2617102 0.22989933
000310 40 19 4c bd bf 94 94 3c cf ff 32 be 80 26 98 bd
       -0.049828768 0.018137334 -0.17480396 -0.07429218
000320 45 2f ab be c8 60 87 be e3 3f f5 bd 99 80 4a 3e
       -0.334345 -0.26441026 -0.11975076 0.19775619
000330 7e 3e ec bc a6 2a be be 51 ce 5c be 03 2d 1d be
       -0.028838392 -0.37141913 -0.21563078 -0.15349202
000340 e0 bb 3c bc 05 ec 5f 3d b5 c3 18 3e 93 27 5c bd
       -0.011519402 0.054668445 0.14918406 -0.05374868
000350 14 99 49 3d 3c a4 48 bd b4 fb b0 be 34 02 12 3e
       0.049218252 -0.04898475 -0.34567034 0.14258653
000360 4b 68 30 bd 4f 6a a6 3d c4 3a b5 be 2f 14 ee 3d
       -0.04306821 0.081257455 -0.35396397 0.116249435
000370 d7 ea 34 3e dd 51 68 3e 00 66 49 3d 1e 91 88 3d
       0.1766771 0.22687478 0.04916954 0.06668304
000380 46 42 98 3b 2f 69 d9 3e 75 a4 11 3e 0b 58 54 3e
       0.0046465723 0.4246306 0.14222892 0.2073671
000390 12 fb 96 3e a0 ea 1b 3f 08 2e bb bd 3b db 3c 3e
       0.29488426 0.60904884 -0.09139639 0.18443005
0003a0 cd 56 04 be 45 cd 12 3f 39 b5 e9 3c 3e 98 5c 3e
       -0.12923737 0.57344466 0.028528797 0.21542451
0003b0 ff ab 9b 3e 6f 9b b1 3e c1 b1 bb 3e bd cc 7b bd
       0.3040466 0.346889 0.36659053 -0.06147455
0003c0 0e c2 ba 3e e0 82 8e be e5 3e bb 3e 9e de bf 3e
       0.36476177 -0.27834225 0.36571422 0.3747453
0003d0 c4 06 73 bd 3c cb 80 be 74 2a 06 3e 5d 0a a6 3c
       -0.059332624 -0.25155056 0.13102132 0.020268613
0003e0 b7 de 0f be d0 74 88 3e d6 17 88 3c c6 0c 06 bd
       -0.14049803 0.2665162 0.016612928 -0.032727025
0003f0 cc 0a d5 3d a5 ff 44 bd 5e a0 ec 3b 66 85 57 bd
       0.1040245 -0.048095364 0.0072212657 -0.052617453

fc2.bias f4 [100]
000000 df f5 ec bb 32 6f 85 3d 77 71 9e bc 59 78 a2 3d
       -0.0072314586 0.065153494 -0.019341214 0.07933111
000010 ac 3f 80 bd 72 b9 3d 3b d7 0e c4 bd bb 40 b5 3c
       -0.062621444 0.0028949645 -0.09573143 0.022125592
000020 33 00 c2 bc 59 a6 82 bc cc d6 67 3d 8d db a9 bd
       -0.023681736 -0.015948461 0.05660133 -0.08293829
000030 95 c2 f8 3d 72 f3 91 bc 2b 5a e3 bd 9f 9d 2c bd
       0.121464886 -0.01781628 -0.111011826 -0.042142507
000040 93 65 de 3c b7 01 0b bd 83 ff 74 bc e3 f9 ab 3d
       0.027148044 -0.033937182 -0.014953497 0.083972715
000050 f6 4b 42 bc 76 86 22 bd fb 6a e7 3d 59 4a d5 bd
       -0.011858931 -0.039679013 0.11299702 -0.10414571
000060 87 a7 2c 3d 3f 23 de bb ff fa 42 3d f9 be b4 bc
       0.042151954 -0.006779104 0.04760265 -0.02206372
000070 ec cf bb 3d ee 45 93 3d 9f 74 41 bd c2 f8 08 bc
       0.09170517 0.071910724 -0.04723036 -0.00836009
000080 20 91 37 3e ac da 08 3e c3 40 ee 3d f1 4c 4d 3d
       0.17926455 0.13364667 0.11633446 0.050122205
000090 6c 35 d2 3d 29 58 d3 3d e4 19 95 3e 6d 15 da bd
       0.10264096 0.103195496 0.29121315 -0.10648618
0000a0 86 26 df 3d 2b 0f 27 3d ef e0 66 3d d5 af 3e 3d
       0.1089602 0.04078595 0.056366857 0.046554405
0000b0 6e ec 7f bc 97 28 08 3d 44 a4 08 3d 3d d3 b0 bd
       -0.015620334 0.033241834 0.03335978 -0.086340405
0000c0 3c 45 2a 3e 2f 17 95 bb b5 d0 2e 3d 0a 3f 02 3d
       0.16627973 -0.004549883 0.042679507 0.0317984
0000d0 f7 91 dd bd 5f 18 55 3d 35 27 3c 3d ce c3 b0 3d
       -0.10818856 0.052025195 0.04593583 0.08631097
0000e0 db 97 3c 3d d0 71 50 3d 34 1a 06 3d e0 e8 ae bc
       0.04604326 0.05088979 0.032739833 -0.021351278
0000f0 e1 3a 64 3e 08 fb 37 3a bd 7f e7 bc 6a b4 f5 3d
       0.22288086 0.00070183026 -0.028259153 0.11997302
000100 34 41 f2 3c b9 d4 03 bd 81 85 e1 3d 05 92 8b 3c
       0.029572107 -0.03218529 0.11011792 0.017037401
000110 72 1e 88 3b 8b 0f 79 3d f0 4b 52 3e 12 65 0a 3d
       0.00415402 0.06080584 0.2053678 0.033787794
000120 68 23 77 3e b9 5f 24 3d 43 70 a3 bb b3 ca 99 bd
       0.241346 0.04013035 -0.004987748 -0.07509365
000130 f4 6a a9 3d 26 60 00 bd 1b 9d 9b 3e a4 8d 16 bb
       0.08272353 -0.031341694 0.303933 -0.0022972608
000140 c1 83 ee bc b6 7e 52 3c 43 78 4c 3d d4 42 d0 bc
       -0.02911556 0.012847593 0.049919378 -0.025422491
000150 c5 64 d9 3d f0 d4 0c bd 47 a0 06 3d 62 54 2d bd
       0.106149234 -0.03438276 0.032867696 -0.0423168
000160 31 d6 5f 3e 46 5a 92 3d cb 44 0d bd e3 38 89 bc
       0.21859051 0.071461245 -0.034489434 -0.016750759
000170 53 0a 3a 3e a7 e3 5c 3d d5 0a ee bc fd 75 46 3c
       0.18168001 0.053928044 -0.0290579 0.012113092
000180 26 dc 1d bd f8 b1 c6 bc 58 7e 77 3d a4 35 a1 3d
       -0.038540028 -0.024254784 0.060423225 0.07871559

fc1.weight f4 [50, 10]
000000 35 15 f2 be 2c a1 b3 be ae 75 f6 bd d7 e2 d0 3e
       -0.47281805 -0.35083902 -0.12034164 0.40798065
000010 58 b5 85 be 45 08 46 3e 32 4e f9 be 30 0d dc 3c
       -0.26114917 0.19339092 -0.4869247 0.026861757
000020 e0 9c fe 3e 57 c2 de be 3e 6e 56 be 40 c6 42 be
       0.4972906 -0.43507645 -0.20940492 -0.19020939
000030 26 e6 02 3e 68 8e 1e 3d 27 c2 2c be a8 c5 4d be
       0.12783107 0.038710028 -0.16870938 -0.20094931
000040 c0 a3 a1 bc 40 44 0d be bb 1f 2e be f1 4d 31 be
       -0.019731402 -0.13795567 -0.17004292 -0.17314889
000050 b5 3f 8e be e0 70 f7 3d 49 30 c8 bd 6c 41 2c be
       -0.2778298 0.12082076 -0.09774835 -0.16821831
000060 53 1d 8b be 0c b1 a3 3c 2b bf 8a be b1 74 a1 be
       -0.2717081 0.019981883 -0.27098975 -0.3153434
000070 77 25 e0 bd 3b 3f 56 be 97 2f 2c be 32 3e 79 3e
       -0.10944646 -0.20922558 -0.16815029 0.24340132
000080 85 a1 05 be f3 3a a2 be bb cb b1 be 3f de a7 3e
       -0.13049896 -0.316856 -0.34725747 0.32786748
000090 7a 2f d7 3e 24 b8 d0 3d c9 1d 70 bd 65 fa 8e be
       0.4202841 0.10191372 -0.058622155 -0.2792541
0000a0 85 43 87 be 1f ac 75 3e 00 9c d0 bd a4 bd 08 3e
       -0.264187 0.2399144 -0.10186005 0.13353592
0000b0 5b a4 56 3e 4b 49 e8 be 78 f4 8a 3e 3d 7c 8e 3e
       0.20961134 -0.45368418 0.2713964 0.2782916
0000c0 55 22 02 3e d8 2f 61 bd 30 cf 49 be f6 b0 99 be
       0.12708409 -0.054977268 -0.19707942 -0.30017823
0000d0 d0 1c 35 be 57 65 0a 3e 0e d6 96 be c6 af 71 3e
       -0.17686772 0.1351522 -0.29460186 0.23602208
0000e0 7e 8f b6 bd c0 de f5 3d 3c 92 e4 3d 26 59 8e 3e
       -0.08914088 0.12005377 0.111607045 0.2780239
0000f0 ae 5c 2a 3e b0 5f 0a be 1c d2 0d 3e 07 3e 07 be
       0.16636917 -0.13513064 0.13849682 -0.13207255
000100 00 67 5d bb 04 44 bc 3d d0 d2 93 3c bc a5 1b 3e
       -0.0033783317 0.091926605 0.01804486 0.15199941
000110 20 b0 99 3d 30 c4 2a bd cd 31 44 3d 7e 5f c1 be
       0.07504296 -0.041691005 0.047899056 -0.37768167
000120 3b 60 0e bf 58 67 b0 3d 10 38 c1 be 91 b2 33 be
       -0.55615586 0.08613461 -0.37738085 -0.17548586
000130 ef e2 0e bf ba 76 70 be 12 95 12 3f 44 3d 5d be
       -0.55815023 -0.2348279 0.57258713 -0.21605402
000140 da 04 6a 3e 28 e0 86 bd 91 12 00 bf 86 f6 66 3e
       0.22853413 -0.06585723 -0.5002833 0.22554979
000150 b6 50 3e 3e 7e 46 b6 3d ae 1b 79 be 18 58 0b be
       0.18585476 0.08900164 -0.24326965 -0.13607824
000160 a7 ad ab 3e ff 36 ca 3e ff 4a ca be 86 20 c9 be
       0.33530924 0.39495084 -0.39510342 -0.39282626
000170 3d 72 89 3e 90 51 e6 be 5d 1f 02 3e ef 4d 27 3e
       0.2684497 -0.44984102 0.12707277 0.16338323
000180 ba aa cb bd 7d 6b 4b be 18 43 35 bf 57 19 8e 3c
       -0.09944673 -0.19865222 -0.708055 0.017346067
000190 a3 70 82 3e 0f 29 21 be d6 d1 af be 8f f5 1a be
       0.2547656 -0.15738319 -0.3433978 -0.15132736
0001a0 c4 ff 3e be f7 d2 3f be 48 0c b8 be 78 49 31 3d
       -0.18652254 -0.1873282 -0.3594687 0.043282956
0001b0 9a 3c db be 18 83 32 3d 29 8c 79 3d 57 cf 86 3e
       -0.42819673 0.043582052 0.060924683 0.26330063
0001c0 a2 5b 36 3e 88 6e 58 bd 9d 7b e5 be 31 8a c8 be
       0.17808393 -0.052839786 -0.44820872 -0.39167932
0001d0 69 f0 0c 3d 8c 58 d2 3d eb 0c e0 3d d8 f5 a3 bd
       0.03440896 0.10270795 0.10939964 -0.08005875
0001e0 10 2e bd 3e 0c fc 47 3c cd 34 89 bd 9c 99 e8 bd
       0.36949205 0.012206089 -0.06699524 -0.11357424
0001f0 dc ab 43 be 78 38 98 be 74 28 d6 3e 58 8b 0d be
       -0.19108528 -0.29730582 0.41827738 -0.13822687
000200 19 39 04 bf 42 d4 78 3e a5 24 ca be 22 d3 9f be
       -0.51649624 0.2429972 -0.39481083 -0.3121577
000210 ed 35 b5 bc c0 aa 09 be 6e d0 8f be ff 59 86 be
       -0.02212044 -0.13444042 -0.28088707 -0.26240537
000220 c2 cc 4b be 46 20 3d 3e 23 77 af 3d 98 43 a4 3e
       -0.19902328 0.18469343 0.085676454 0.3208282
000230 1d ff ce 3e f3 ea 11 3e 18 50 1c be c0 55 ef 3d
       0.4042901 0.14249782 -0.15264928 0.116862774
000240 fa 7b 3e be 69 2a 06 3f 3c ca bf bd 6a e4 45 3e
       -0.18601981 0.5240846 -0.09364745 0.19325414
000250 e7 50 a1 be 47 79 8b be f1 97 46 bd 72 3e 43 bd
       -0.31507036 -0.27240965 -0.048484746 -0.047666974
000260 37 ef ce be fe 86 8d be b4 66 e3 bc 1a 71 ef 3d
       -0.4041688 -0.27642053 -0.027758934 0.11691494
000270 19 0d 40 be 36 b4 2f 3e 93 94 22 3e ad 06 89 be
       -0.18754996 0.17158589 0.15876989 -0.26762906
000280 fa d9 a6 be 41 05 68 3e 52 f1 b4 be ef 94 14 be
       -0.32588178 0.22658254 -0.35340363 -0.14509939
000290 ea 54 bb 3e c7 38 1e bf 07 ef a1 be d8 8a 5d bd
       0.36588222 -0.61805385 -0.31627676 -0.05408749
0002a0 38 6e 8b 3e fa 13 8f be 84 cd 10 bf 63 60 28 be
       0.27232528 -0.27944928 -0.5656359 -0.16443019
0002b0 54 4b 1a bf 80 7e d2 3c dc 3d f5 be 30 98 6f be
       -0.6027119 0.025695086 -0.47898757 -0.23397899
0002c0 b0 09 b5 bc 5c f4 5d be 60 b4 10 3f 21 4a 21 3e
       -0.022099346 -0.21675247 0.5652523 0.15750934
0002d0 9a 18 40 3e da cc 82 3d e5 0b 72 3e 0e b6 f9 bd
       0.18759385 0.063867286 0.2363735 -0.12192927
0002e0 b2 ac af 3e e3 e5 d9 be df 7e d2 3e ac 6a b7 3d
       0.34311444 -0.42558202 0.4111242 0.08955893
0002f0 ec 2e 1a 3e cd a0 80 be 6f 99 e0 be de 22 af be
       0.15056962 -0.2512268 -0.4386706 -0.3420629
000300 71 2d 4f be 17 81 5a 3e 2b ab b4 be 50 bf c1 bd
       -0.20232178 0.21338306 -0.3528684 -0.09460318
000310 58 a9 e0 be 78 b8 7d 3d 75 5d 03 bf 2a 82 8c 3d
       -0.438792 0.0619435 -0.5131448 0.06860764
000320 24 d2 3c be b2 c3 90 be 80 d2 7a be 74 b2 2d 3e
       -0.18439537 -0.28274304 -0.24494362 0.16962606
000330 f3 d8 be bd 91 7b 13 3e dd 66 02 3f de 7d 5e 3e
       -0.093187235 0.14402606 0.50938207 0.21727702
000340 70 b4 90 be c0 08 98 3e 72 fb cc bd c4 51 28 be
       -0.28262663 0.29694176 -0.10008897 -0.16437441
000350 8b 34 99 be 8b 17 0c 3d 5b 45 a0 3e 1f 11 7a be
       -0.299229 0.03420214 0.31302914 -0.24420594
000360 aa 9d 51 be 6e 0a 10 be 76 8e 01 3d fb 82 68 be
       -0.204703 -0.14066479 0.031630002 -0.22706215
000370 44 b0 ae 3e 3e f1 90 be df 99 05 3f 10 85 e3 3c
       0.34118855 -0.28309053 0.52187914 0.02777341
000380 d7 8e f1 3c 31 6c 45 be 41 a2 0f be 2e 7e 69 be
       0.029487057 -0.19279553 -0.14026739 -0.2280204
000390 3b 76 0c bf 60 41 8c be e6 e1 4b be 50 38 ec bc
       -0.54867905 -0.27393627 -0.19910392 -0.028835446
0003a0 02 5c 1d be 3a 26 90 be b0 f1 18 3e 41 4c 28 3e
       -0.1536713 -0.28154165 0.14935946 0.16435339
0003b0 1a 1f fa bc 4b 23 94 3e ef 8e 75 3e 3b 23 60 be
       -0.030532409 0.28933176 0.23980306 -0.2188844
0003c0 87 98 8b bd b9 0c 8b be d4 df 2f 3d 37 4c 63 3e
       -0.06816202 -0.27158144 0.04293807 0.22197042
0003d0 6d 4c 40 bc 44 dd e8 bc 89 3d c5 3d 9b 3f 20 be
       -0.011736971 -0.02842582 0.096308775 -0.15649264
0003e0 d1 ba 05 3e 31 e6 bc 3d 53 32 35 be 53 6d 2c be
       0.13059546 0.09223593 -0.17694978 -0.16838579
0003f0 63 dd 12 3f 33 5b 95 be 00 d5 97 3d 98 3e 76 be
       0.5736906 -0.29171142 0.074136734 -0.24047315

fc1.bias f4 [50]
000000 30 8d 14 3b 9a 41 6a be 0e 12 15 3e f1 b3 07 bd
       0.0022667162 -0.22876588 0.14557669 -0.03313059
000010 93 8e 1f be 40 16 6a be b8 d0 9f be 9b 6c d8 bd
       -0.15581731 -0.2286005 -0.31213927 -0.1056759
000020 1e 52 38 3d 77 d6 a3 3e ff df 94 3e 48 c5 6a bd
       0.045000188 0.3199956 0.29077145 -0.05731705
000030 9b 3a e8 3c 71 cc 0e 3e 2d 06 85 bd 53 5b fa 3b
       0.028348258 0.13945176 -0.064953186 0.007640281
000040 d3 12 2b 3c 08 79 f7 3b a7 ab 8b be 70 ee bb 3e
       0.0104415 0.00755227 -0.27279398 0.3670535
000050 f9 df b2 3d 08 c3 17 3e df 13 13 bd b2 d5 81 be
       0.08734126 0.14820492 -0.035907622 -0.2535835
000060 a6 cc 23 3d 3e 86 96 bd 0a f2 8f be 4c f0 5a be
       0.03999009 -0.073498234 -0.2811435 -0.21380728
000070 15 8f b7 bc 62 2d 7c be f2 54 50 bd a9 77 57 bd
       -0.022407094 -0.24626687 -0.05086226 -0.05260435
000080 31 50 06 be 22 19 c4 3d 8b a3 56 3e d8 80 4e be
       -0.13116528 0.09575106 0.20960824 -0.20166337
000090 2c 7c 12 be 1a 01 ee bd 29 da e8 be f1 80 00 be
       -0.1430518 -0.11621304 -0.45478943 -0.12549187
0000a0 10 3b b5 3e 00 3f 25 be 7c d0 38 3e 83 55 f3 bd
       0.35396624 -0.16137314 0.1804828 -0.118815444
0000b0 06 39 2d bd 60 a9 9d 3d b5 09 cc be db b0 21 be
       -0.04229071 0.07698321 -0.39851156 -0.15790121
0000c0 71 80 84 be 88 cd 29 bd
       -0.25879243 -0.041455775
