agi_model.pth (torch, 190654 bytes, 32 tensors)

fc1.weight f4 [50, 10]
000000 a7 30 30 be f8 ae 3c 3e 04 f8 b3 be ce 9f df be
       -0.1720606 0.1842612 -0.35150158 -0.4367661
000010 85 33 11 3e ca 73 7b 3d c5 5a 8b 3e 60 d7 23 3c
       0.1417981 0.061389722 0.2721769 0.01000008
000020 8c 75 dc bd 43 5b 7e 3c ec a8 33 be c0 f8 b9 3e
       -0.10764608 0.015524688 -0.17544907 0.36322594
000030 1d 3d 28 be e4 92 05 3f f5 ba 94 3e b2 12 9d be
       -0.16429563 0.5217726 0.29048887 -0.30678326
000040 f5 86 10 3f ad ba 23 be 75 60 98 3e e4 a7 b5 3e
       0.5645593 -0.1598918 0.2976109 0.35479653
000050 4e 21 df bd f4 17 df bd 04 cc 88 be 8f 61 01 3f
       -0.10895024 -0.108932406 -0.26718152 0.5053949
000060 46 09 93 3e af 86 d1 3e ee a0 69 be c3 22 10 be
       0.28718013 0.40923068 -0.22815296 -0.1407576
000070 cc 8b 62 be 50 40 f7 bb 32 a6 5f be 5a 33 9e 3e
       -0.22123641 -0.0075455084 -0.21840742 0.30898553
000080 f0 54 bd bd 5f 06 d7 3e a3 ca 9b be 56 e0 39 be
       -0.09244716 0.41997048 -0.30428037 -0.18151984
000090 f5 55 f2 3e 72 e8 8c be b5 cb f4 be be 6f 9a bd
       0.47331205 -0.27521092 -0.47811666 -0.075408444
0000a0 f6 aa 60 be 28 85 43 bd f5 bf ee 3e 7a 85 70 3e
       -0.21940216 -0.04773441 0.46630827 0.23488417
0000b0 80 59 38 bc 9b 3c 9e be 30 9a d6 bc c0 ed 77 3c
       -0.011251807 -0.30905613 -0.02619657 0.015132368
0000c0 12 c5 ff be f0 e3 a3 3d 8d 96 00 3c ca 9e 06 bf
       -0.4995504 0.0800246 0.007848394 -0.5258604
0000d0 a0 4d ca be e2 50 df bd d1 f5 46 3e a9 c2 d9 bd
       -0.39512348 -0.10904099 0.19429709 -0.106328316
0000e0 bd 97 c9 bd e0 e2 62 bc 55 f2 29 3e 16 09 7f be
       -0.09843395 -0.0138480365 0.16596349 -0.2490581
0000f0 17 e6 fc bd 61 7c 8b 3d ea fb 9c be 4f 7f 79 3d
       -0.12348574 0.06810833 -0.30660945 0.060912427
000100 4a 1d 76 3e 9c 52 0a 3e 39 81 44 bd c6 3d 37 3e
       0.2403461 0.13508075 -0.0479748 0.17894658
000110 ee 84 f9 3e 67 ec 23 3d 74 53 88 3d 7d a9 68 3d
       0.4873423 0.040020373 0.066565424 0.05680226
000120 88 7b 2d 3d ef 21 0e 3f ba 92 65 3e 44 21 b1 3c
       0.042354137 0.5552053 0.22419253 0.021622308
000130 88 d3 6c 3d ce 3c 0b 3e ca 93 3e bd 15 6f 0e 3f
       0.05781892 0.13597414 -0.04652766 0.5563825
000140 8c ce ad 3e 2e 80 c3 bd 7d ce d9 bd 14 9b a0 be
       0.33946645 -0.09545933 -0.10635088 -0.31368315
000150 46 c7 e6 bd 2a 04 75 be 18 3f a2 3e 9a 1b 73 be
       -0.11268477 -0.2392737 0.31688762 -0.23740998
000160 92 00 1d be 8f c8 f5 3d 6b 9f e3 3e 30 1c ec 3d
       -0.15332249 0.12001144 0.44457564 0.11528814
000170 c6 a9 be bd c3 cd 90 be 91 96 84 3e 1b f9 21 3e
       -0.093097255 -0.28281984 0.25896123 0.15817682
000180 09 0b eb bd d2 c9 14 3e f9 52 bf bb 4b f3 d5 3e
       -0.11476714 0.14530113 -0.0058387485 0.4178718
000190 4d 79 9f be ac 70 6a be 73 b8 13 3d 70 8e ff bc
       -0.31147233 -0.22894543 0.036064576 -0.03119585
0001a0 e0 04 67 be f0 14 aa bc ca f5 8d 3e 48 6b 50 be
       -0.22560453 -0.020761937 0.27726585 -0.20353425
0001b0 4e bb e3 3e cd 91 cc 3e ce d6 33 3e 30 26 1e 3e
       0.4447884 0.39954987 0.1756241 0.15444255
0001c0 86 b0 89 bd 7e e7 91 3e 20 2d e0 3e 18 72 9a 3e
       -0.06723122 0.28496927 0.43784428 0.30165172
0001d0 9d bf 17 be 48 e5 b9 3d 67 8d 39 bf e1 27 93 3e
       -0.14819188 0.09076935 -0.7248139 0.28741363
0001e0 fb 9a f4 3e 61 91 fd 3d 8c 4c 04 3e 94 9f d0 3d
       0.4777449 0.123812445 0.12919825 0.10186687
0001f0 cf c4 36 3c 83 f1 0e 3b de 3a d6 bd 86 08 5e 3e
       0.011155321 0.0021811433 -0.10460447 0.21682939
000200 78 d6 a6 be 0a 67 8c be 86 6d 82 bc d1 f4 32 3e
       -0.32585502 -0.27422363 -0.015921365 0.17476203
000210 a1 05 18 be d8 25 97 bd 6a 10 15 3f a2 82 b6 be
       -0.14845897 -0.07380265 0.5822817 -0.3564654
000220 3f f2 12 3e 01 a6 23 be f7 3f 16 3e 8e d3 e4 bd
       0.14350222 -0.15981294 0.14672838 -0.11173163
000230 60 5c 0a 3e 78 63 36 3d 20 0f a1 3c a4 ca a7 bd
       0.13511801 0.044528455 0.019660532 -0.081929475
000240 f0 71 0b 3e f8 21 6e bd af 64 9e be fb b7 8a 3e
       0.13617682 -0.058137864 -0.3093619 0.2709349
000250 9c d7 8d be 00 a0 b1 bb 0e fd a9 be 3e 2c 6d be
       -0.2770356 -0.005420685 -0.33200878 -0.23161408
000260 ac 54 50 3e e4 95 79 be d9 f8 c5 bd a6 c4 8d be
       0.203448 -0.24373585 -0.096666045 -0.27689093
000270 7f 13 49 3e 04 f6 8f bd 5f e1 92 3e 61 2f 3c bd
       0.19636343 -0.07029346 0.2868757 -0.04594362
000280 05 d4 a1 3e c8 4b 95 3d 97 62 10 3a 8e c1 6a be
       0.3160707 0.07289845 0.0005507855 -0.22925398
000290 52 cc 0d be d6 1c 9a be 10 e6 8b bd 2a 4d 66 3e
       -0.13847473 -0.30100125 -0.0683099 0.22490373
0002a0 8d 4f b6 3d 30 5a 3a 3d e9 8d 80 3e a2 bf 68 3e
       0.08901892 0.045496166 0.2510827 0.22729352
0002b0 d0 b3 5c be 9d 71 82 be 06 c1 80 be be a1 8e be
       -0.21552968 -0.25477305 -0.25147265 -0.27857774
0002c0 88 a6 f7 bd c0 e5 05 3d 24 0d 44 be 30 bf 4b be
       -0.1209231 0.03268981 -0.19145638 -0.19897151
0002d0 a2 64 6d be b5 52 9e 3e 7b b2 80 3e 37 af 3b 3f
       -0.2318292 0.30922475 0.2513617 0.7331423
0002e0 11 75 cf be ed 4e 2c 3e 48 01 e0 3d ec c7 07 be
       -0.40519002 0.16826983 0.109377444 -0.13259858
0002f0 8a 9d eb bc 23 93 bb 3e bc 46 27 be 3b 64 bb be
       -0.028761644 0.36635694 -0.16335577 -0.36599907
000300 e4 9f 1c bf b8 84 2e be ad dd a6 be 9b 1c bf be
       -0.61181474 -0.17042816 -0.32591 -0.37326512
000310 63 56 22 bf d4 64 9c be 8d 15 f4 3e a7 07 92 be
       -0.63413066 -0.30545676 0.47672692 -0.28521463
000320 e0 ca a3 bd 16 13 b1 be 14 82 87 be 6d 8b 5e be
       -0.0799768 -0.34584874 -0.2646643 -0.21732874
000330 44 49 70 3e b6 af 7b 3e 14 b0 78 be ec f1 14 3e
       0.23465449 0.24578747 -0.24285918 0.14545411
000340 bf fe 1f 3e 1e 9b 80 3e 87 5f 63 be 49 d1 55 be
       0.15624522 0.25118345 -0.2220441 -0.20880617
000350 28 e9 86 be 99 46 8f be 8c c7 a9 be cf bc 3e 3e
       -0.2634976 -0.2798355 -0.33160055 0.18626712
000360 21 4b c1 be 3c c4 f6 3d 40 4c 1c be 0e f6 a2 be
       -0.3775263 0.120491475 -0.15263462 -0.3182835
000370 0b ae b2 3e ec 7b 75 3e a3 76 a7 be 66 34 9b be
       0.3489841 0.23973054 -0.327077 -0.30313414
000380 fd 06 bf be ea 56 fe 3d da f5 7b bd c6 07 92 bd
       -0.3731002 0.12418921 -0.06151376 -0.07130389
000390 1b 05 70 3e f7 b9 2d 3e e9 48 a1 3c 1f 24 8f 3d
       0.23439448 0.16965471 0.019688087 0.069893114
0003a0 35 35 5e 3e 3e 3d 28 be 20 e1 ab 3c cb 90 ff be
       0.21699984 -0.16429612 0.020981371 -0.49915156
0003b0 19 41 d8 be 94 cf 8d be b8 e0 27 3e 39 ee aa bd
       -0.42237166 -0.27697432 0.16394317 -0.083462186
0003c0 86 87 b7 be e9 14 91 bd 14 4f 44 3e 02 72 c3 3e
       -0.35845584 -0.070840664 0.19170791 0.3817292
0003d0 19 f6 73 be 59 46 48 be c1 14 fe be 18 8a 5c bd
       -0.23824348 -0.19558086 -0.4962521 -0.053842634
0003e0 20 c1 18 bf 56 09 34 be 48 2c 1a 3e 29 b8 aa be
       -0.59669685 -0.17581686 0.15055954 -0.33343628
0003f0 3b 5d 08 3e c4 bd 7b be 0f 28 a6 3e b1 30 ab 3e
       0.13316815 -0.24584109 0.32452437 0.33435586

fc1.bias f4 [50]
000000 58 ca 9a 3e 18 79 ac be 8a bb 0d be db 7e 70 bd
       0.302325 -0.33686137 -0.13841072 -0.05871473
000010 d1 da 61 bc 83 b0 e4 3d 5f b0 c2 be 4e 90 2f be
       -0.01378508 0.111664794 -0.38025185 -0.17144892
000020 a2 20 85 bc 5c 39 ac bd 02 ef 96 be ff c9 dc bd
       -0.016250912 -0.08409378 -0.29479223 -0.10780715
000030 e8 82 2b be 99 13 e2 bd 4d 81 20 be 64 a0 90 3c
       -0.16749156 -0.11038894 -0.15674324 0.017654605
000040 6b 9e e4 bd 62 1c 84 be 6d b9 6a 3d 29 96 c1 3d
       -0.11163028 -0.25802904 0.057305742 0.09452469
000050 5a 9c 51 be a0 dc b0 3e 37 b5 65 3b 93 e8 20 3e
       -0.204698 0.34543324 0.003505064 0.1571372
000060 15 3a e4 3e 53 e3 83 be 97 fb 27 be 05 8c 4b 3e
       0.44575563 -0.25759372 -0.16404568 0.19877632
000070 37 ec 84 bd bd 7c 80 bc bb 14 8b be a8 9c 81 bd
       -0.06490367 -0.01568448 -0.27164254 -0.06328708
000080 c6 a7 84 3e b9 8c f8 3d 27 27 20 3c e3 00 ae 3e
       0.2590925 0.12136216 0.00977496 0.33985052
000090 ab 16 40 bc f8 0c a7 be b1 15 a5 bd d4 3d 43 3c
       -0.011724154 -0.32627082 -0.08060778 0.011916596
0000a0 fd c8 e0 3e a0 77 88 3d 79 74 b4 bc 50 e8 e0 3d
       0.43903342 0.06663442 -0.022028195 0.1098181
0000b0 4f 01 42 3e c6 6a fd be 6e e7 37 be 90 d2 7c be
       0.18945812 -0.49495524 -0.17959377 -0.24689698
0000c0 70 3b 79 be dc 72 74 be
       -0.2433908 -0.2387194

fc2.weight f4 [100, 50]
000000 08 76 11 be 1d 2f 77 bd 34 07 14 be eb 93 0c bc
       -0.14205182 -0.060347665 -0.14455873 -0.008580188
000010 3f a7 db bc f5 72 64 3e 72 f2 39 be 15 43 ce bd
       -0.026813148 0.22309478 -0.18158892 -0.10071389
000020 0f a4 6e 3e 33 fe ac 3e ec 84 0d be 31 27 62 3e
       0.23304771 0.3378769 -0.13820237 0.22085263
000030 fa b3 08 3e 17 91 0e be d0 6f 79 bd de 8a 65 be
       0.13349906 -0.13922535 -0.06089765 -0.22416255
000040 3d 2b ab 3e 98 d9 fc bd eb e3 cf bd 90 aa 8c 3c
       0.33431426 -0.1234619 -0.10150894 0.017171174
000050 cd 2f ac bd 07 86 11 be 21 c2 96 3e e3 92 5e 3d
       -0.08407555 -0.14211284 0.29444984 0.0543393
000060 c8 b6 35 bd ab 96 f4 bc 35 b6 9e 3e 39 58 9a 3b
       -0.044363767 -0.029857 0.30998388 0.004710224
000070 f2 18 75 3d df 4b 42 3e 93 a2 23 3e 8f c3 07 be
       0.059838243 0.18974255 0.15979986 -0.13258193
000080 64 6e 68 bd 34 3f 97 3b b7 d5 1d 3e 2c bc 70 be
       -0.0567459 0.0046156887 0.15413557 -0.23509282
000090 b3 bb 2d be 86 89 32 3d 8c 8b 9e 3d c3 db 21 3e
       -0.16966133 0.043588184 0.0774146 0.15806489
0000a0 18 a1 6e 3e b5 d0 0a 3d b9 28 a0 be b4 ef 59 3e
       0.2330364 0.033890445 -0.3128107 0.21282846
0000b0 e9 1f 26 bc bd 2c ad 3e 72 59 31 3e f0 8f 19 bd
       -0.010139444 0.33823195 0.17319277 -0.037490785
0000c0 18 c9 d7 3c 98 7a 0c be 7b e3 93 3d 04 bb 0a be
       0.026341006 -0.13718641 0.07221123 -0.13547903
0000d0 43 a0 4d bc 8a 6f 7b 3e 79 bb be bc e1 e2 24 bd
       -0.012550416 0.24554268 -0.023282753 -0.04025543
0000e0 39 2d 16 be 12 31 46 bd 2d 31 8b be b2 2c b4 bd
       -0.14665689 -0.04838664 -0.27185956 -0.087975875
0000f0 44 ce cc bd 0a 12 a6 bc cd 91 2e 3e 9b 40 58 bd
       -0.100002795 -0.020272274 0.17047806 -0.052795988
000100 d0 1b 0e 3d 5c 70 1d be 07 38 09 3c 8c 54 95 3d
       0.034694493 -0.15374893 0.008375174 0.07291517
000110 c3 4f 3b 3e 4f a5 d2 bd 06 7a f6 3d 40 9a be be
       0.18292145 -0.10285436 0.12034993 -0.37227058
000120 50 64 6a 3e f0 32 56 3e e5 50 6e 3d 0f 4f 96 bd
       0.22889829 0.20917869 0.058182616 -0.07339298
000130 7d 0b 2b 3e d8 76 04 bd af 30 8b 3d 8f e0 40 be
       0.16703601 -0.0323399 0.06796395 -0.18835662
000140 3c f8 16 be 16 e3 d3 3d 70 de 1f 3e 39 75 ac bd
       -0.14743131 0.103460476 0.15612197 -0.08420796
000150 ec f8 ce bd 00 69 44 bb b3 4d 59 be c0 b2 42 3e
       -0.10106072 -0.0029969811 -0.21221046 0.190135
000160 69 50 28 be a8 2a 49 3e 71 a9 7f bd ff 7c 0f 3e
       -0.16436924 0.19645178 -0.06241745 0.14012526
000170 87 fe d5 3d d8 61 22 be c1 30 b3 be 6b b2 b3 be
       0.10448938 -0.15857637 -0.34998134 -0.3509706
000180 ce 70 65 be 2c 50 73 3d 90 b5 bf bd ee 27 5e be
       -0.22406313 0.05940263 -0.09360802 -0.2169492
000190 88 30 84 bd dd 88 a0 bd 35 8e 58 be c4 ea a0 bd
       -0.06454569 -0.078386046 -0.21147998 -0.07857278
0001a0 ba 38 da 3e 63 f5 79 3d be 01 11 3e 51 3f 45 be
       0.42621404 0.061025035 0.14160821 -0.19262435
0001b0 ec 59 03 3e 26 a1 0d be 07 07 4c be 50 bc 85 be
       0.12827271 -0.13831005 -0.19924556 -0.26120234
0001c0 c7 78 2e 3c e3 d2 55 3d 94 1d ca 3d bc 2a 99 3e
       0.010648913 0.05220307 0.09868923 0.29915416
0001d0 9b 0d d3 3d 88 ec 4a 3d 2c 4d 8f 3e 9a 4c 0a 3d
       0.103053294 0.04954198 0.27988565 0.03376446
0001e0 de 73 85 3d ef bb f4 3d 7f 6f 2d 3d 88 37 66 3e
       0.065162405 0.11949908 0.04234266 0.22482121
0001f0 a1 bc 27 3e 5e 14 4d 3d 5f 05 cc 3c 09 93 98 be
       0.1638055 0.05006825 0.024904905 -0.2979968
000200 3a f8 67 bc 08 8c cb 3e 83 a9 21 be 97 e3 0b 3e
       -0.014158303 0.39755273 -0.1578732 0.13661037
000210 bc 00 9f be a6 d7 0d bd 39 56 b4 bd f6 73 4b 3e
       -0.31055248 -0.034629487 -0.08805508 0.19868454
000220 e8 62 c0 3e c5 8d f3 3d f7 5a 63 3e 5a de 4f be
       0.3757546 0.11892275 0.22202669 -0.20299664
000230 c5 e9 9e be 4a 56 71 3b 71 86 92 be c3 18 72 3e
       -0.31037727 0.0036825114 -0.28618196 0.23642258
000240 1a 3b 8a 3d 18 90 ad be 61 a3 09 3e f7 e2 0e 3e
       0.06749554 -0.33898997 0.1344123 0.13953768
000250 ae 39 db bd 67 19 89 bd 4f b3 51 be 2f 28 f6 3d
       -0.10704361 -0.06694298 -0.20478557 0.12019383
000260 fe 4a d5 3e 67 c6 e1 3d e7 00 7b bc 7f 9e e8 bd
       0.41658777 0.1102417 -0.015320039 -0.11358356
000270 37 29 8d bd 8a a2 0e 3e f7 ee 05 3d c3 c0 7f bd
       -0.06892627 0.13929191 0.032698598 -0.06243969
000280 a2 e0 12 3d dd eb 2d 3e 8c 11 87 3e 05 d5 4e bd
       0.035858758 0.16984506 0.26380575 -0.05049612
000290 ce 56 b9 bd 35 9b 41 bd 70 9b 35 3d 6c e9 87 3d
       -0.0904976 -0.047267158 0.04433769 0.066363186
0002a0 68 53 82 3e 6e 13 bf 3d cf 06 86 be ab a5 0a bc
       0.2545426 0.09329878 -0.2617707 -0.00846235
0002b0 76 49 73 bd 74 29 1f be 16 95 48 3e b5 df e0 bd
       -0.05939623 -0.15543157 0.19588122 -0.10980169
0002c0 0e e1 9c 3d 2e d7 98 3d f4 1e 30 be 22 66 08 bc
       0.07660113 0.07462917 -0.17199308 -0.008325132
0002d0 41 da c1 bd b8 62 87 3d d3 dd 14 bd a6 c7 ca 3c
       -0.09465457 0.06610626 -0.03634436 0.024753403
0002e0 6d ff ab 3d f1 81 15 bc fe 53 8f be 30 bd 40 3e
       0.08398328 -0.009125219 -0.27993768 0.1882217
0002f0 92 29 04 3c 4a 05 01 3d f4 da ae bc 5e 3e b1 3d
       0.008066552 0.031499185 -0.02134464 0.08654474
000300 4a c3 13 3d fd 58 85 bd 17 9a 29 3e 39 cb 80 bd
       0.036074914 -0.06511114 0.16562687 -0.06288762
000310 98 b3 c0 3b c0 04 07 bb c7 d3 0f 3e b4 1d 3d 3e
       0.0058807842 -0.0020602196 0.1404563 0.18468362
000320 6d 24 80 3e 1b 95 32 3f ff 29 e5 bd 2d c9 74 be
       0.2502779 0.69758767 -0.11189651 -0.23904867
000330 4f 40 27 3e 2d 26 6f be 76 cd 60 3e 2e 2b 61 3e
       0.16333126 -0.23354407 0.21953377 0.21989128
000340 20 19 e2 bd 3f 09 17 3e ec ec 61 be a7 3b 79 3e
       -0.110399485 0.14749621 -0.22063035 0.24339162
000350 1c 1b 31 3e 06 31 11 3f 80 a3 8f 3a db ec db bd
       0.17295498 0.5671543 0.0010958761 -0.10738536
000360 fb 7e b9 be e0 89 7a 3d 2f a5 89 bd 26 a1 dd be
       -0.3622969 0.061166644 -0.067209594 -0.4328701
000370 9a e9 a5 be 14 75 07 be b6 ff a8 bd 16 15 74 3e
       -0.32404786 -0.13228256 -0.08251898 0.23836169
000380 95 f0 e7 bd 79 76 a3 be 4a 85 89 3e c6 05 81 be
       -0.11325184 -0.31926325 0.26859504 -0.25199717
000390 49 ae 95 bd 13 2a 83 bd a7 5c 1b 3e c0 d9 44 3c
       -0.07308633 -0.064045094 0.15172063 0.012014806
0003a0 3b fa 3c be 30 31 41 3e 6c 9b 71 3e d4 e6 a9 3c
       -0.1845483 0.1886642 0.23594445 0.02073995
0003b0 3c 34 4b bd 69 31 c3 be 4c 1a 9a 3e b4 84 b4 be
       -0.04961036 -0.38123634 0.30098188 -0.35257494
0003c0 23 fd 0d 3e c1 6f 74 3e 57 9d 87 3d f6 7b 3f be
       0.13866095 0.23870756 0.06621807 -0.18699631
0003d0 58 8e 12 3d 96 0f 7e be be 72 b6 be 92 b0 df 3d
       0.03578028 -0.24810633 -0.35634416 0.1092235
0003e0 e0 42 c4 3c c5 69 bb 3d 5a 7a f0 bd 98 f9 59 3e
       0.02395767 0.09151033 -0.11742087 0.21286619
0003f0 8d 37 c4 3e a2 80 1b 3d c6 57 54 3e 3a 74 f5 bd
       0.38323632 0.03796447 0.20736608 -0.11985059

fc2.bias f4 [100]
000000 0c 07 6e 3d a2 62 0d 3e 69 28 81 3c 07 75 18 bd
       0.05811219 0.13807157 0.01576634 -0.03722098
000010 6c b6 6c 3d b7 ec 9a bd f6 52 6d 3e 68 01 92 3d
       0.05779116 -0.07564681 0.23176178 0.071291745
000020 66 18 b4 3d b4 f5 5f 3d b9 e8 43 3e b1 56 a0 3d
       0.08793716 0.05467768 0.19131745 0.07829035
000030 44 15 08 3d 89 9a 73 bd 48 e5 9b 3d a0 29 44 bd
       0.033223405 -0.059473548 0.07612091 -0.04789126
000040 34 db 3f 3d 6c 41 42 3d 7e 4d b1 3d 13 0e 85 bd
       0.046839908 0.047425672 0.086573586 -0.06496825
000050 b9 3f 43 3e 48 13 20 3d 34 78 eb 3d 68 9c 9f bd
       0.19067277 0.039080888 0.11497536 -0.07793504
000060 03 1e 87 bd 1e f1 e0 3d 53 ac 54 bd bf f4 a8 39
       -0.06597521 0.109834895 -0.051922154 0.00032225807
000070 da 37 31 3c aa bb 37 3d eb 82 88 3d dc 68 f9 3d
       0.010816539 0.044856705 0.066655956 0.121782035
000080 49 e7 b2 3d 38 a8 65 3d 07 e9 6d bc 28 f9 9d 3d
       0.087355204 0.05606863 -0.01452089 0.077135384
000090 04 c8 32 3c b0 2a 53 b7 97 d9 ca 3d 82 c9 74 bd
       0.010911945 -1.2586519e-05 0.09904783 -0.059762485
0000a0 f4 be da 3d dd 72 84 bd 67 e8 80 3d 5d 7c 67 3b
       0.10680953 -0.06467221 0.06294327 0.003532193
0000b0 86 95 16 3e c7 1d bd 3d 55 fe bf bd 3a 41 cb 3d
       0.14705476 0.09234195 -0.09374682 0.0992455
0000c0 7a 80 da 3d 26 18 80 ba 1d 05 18 bc 72 f3 43 3d
       0.10669036 -0.0009772822 -0.009278563 0.04783959
0000d0 cf e3 ee 3d 85 b6 c2 bb 69 71 96 bd 8f 7e 7b 3e
       0.11664545 -0.005942168 -0.0734585 0.24559997
0000e0 14 70 7e bc ec 48 97 3d 72 ef 31 3d 96 d2 90 bd
       -0.015529651 0.073869556 0.043441243 -0.07071416
0000f0 b5 ee 40 3e 76 be 07 bd ad 56 85 3c 97 8e 92 3d
       0.1884106 -0.033140622 0.016276682 0.07156103
000100 5f f1 df bd 70 dd 22 3e 27 71 12 bd f1 a4 53 3d
       -0.1093471 0.15904784 -0.03575244 0.051670972
000110 28 fe aa 3c 61 d4 1a 3d 1e ce da 3d d3 31 8e 3d
       0.020873144 0.037800197 0.10683845 0.06943097
000120 30 c7 25 3e be 14 10 bc 0c db c2 bd f8 e1 87 bc
       0.16189265 -0.008794008 -0.09514436 -0.016587242
000130 c1 f6 81 bd 23 05 a7 bd 46 05 6e 3c 6d a1 a8 3b
       -0.06345893 -0.081552766 0.0145276245 0.0051461966
000140 ba cb 6d 3d d3 e4 9d 3d 39 ad ad 3c b5 1c 87 3d
       0.058055617 0.077096604 0.021200763 0.06597272
000150 e5 90 10 3d 22 85 9c 3d 2a b0 20 3e 9b 7f b0 bd
       0.035294432 0.076425806 0.15692201 -0.08618089
000160 36 59 d7 3d 05 c0 80 3d 48 0f 14 3e 3b 94 2c bd
       0.105150625 0.06286625 0.14458954 -0.04213355
000170 30 f6 4b bc 64 37 1f bd b5 36 53 3b e8 80 42 3d
       -0.012448832 -0.038871184 0.0032228653 0.047486216
000180 5b bf d8 3d ad 92 6a bc a0 e9 a5 3d f5 76 44 bd
       0.10583373 -0.014317197 0.08101201 -0.04796501

fc1.weight f4 [50, 10]
000000 70 b8 fa 3d 5b e3 91 be 9b f4 c7 bd 53 46 46 be
       0.1224221 -0.2849377 -0.09763452 -0.19362764
000010 c2 e9 82 3e a6 99 c7 3e 3f 7a 8b bd dd a9 01 3e
       0.25568968 0.38984412 -0.06810426 0.12662454
000020 67 5d f9 3d 91 59 9a be 4c d6 2b be de 43 03 3e
       0.12176018 -0.3014646 -0.16780967 0.12818858
000030 67 a1 d4 3e 78 9f 59 be c2 41 b5 be e2 bd 20 3c
       0.4152939 -0.21252239 -0.35401732 0.009810897
000040 53 d1 8b 3e cc 39 26 3e df d8 36 3e 83 89 98 bc
       0.2730814 0.16232985 0.17856167 -0.018620258
000050 23 53 27 3b b1 ae a7 bb 3c 1b 4e 3d ce 78 40 3d
       0.002553173 -0.0051172604 0.05031894 0.04699021
000060 1d 49 6d be 64 1b b5 3d 10 1a 03 3e 95 eb 42 be
       -0.23172422 0.08843115 0.12802911 -0.1903518
000070 c5 70 85 3d ef 81 96 be 0b d2 fd 3b ed 57 89 3c
       0.0651565 -0.29396006 0.0077459863 0.01676556
000080 af 30 81 be 44 73 44 3d 66 4b 5c be 53 28 f7 bd
       -0.25232455 0.04796149 -0.21513137 -0.12068238
000090 24 85 46 be 91 d1 5c be 15 3a 5a be cc 37 cc bd
       -0.19386727 -0.21564318 -0.21311219 -0.0997158
0000a0 df e0 16 3e d8 4e dd bd 6e eb b9 bd 03 ac 17 be
       0.14734219 -0.10806054 -0.09078108 -0.14811711
0000b0 33 cc 07 3e d0 3f 67 bd 7c 95 86 3d ef 35 11 3e
       0.1326149 -0.05645734 0.06571481 0.1418073
0000c0 48 75 6b be 84 03 6c 3d 0d 36 b3 bd 3f 74 ef 3e
       -0.22993958 0.05762054 -0.08750544 0.46768376
0000d0 29 89 c0 3e bc 88 a6 bd 85 c9 24 be 17 22 47 be
       0.37604645 -0.08131549 -0.16092499 -0.19446598
0000e0 cd 49 04 3f 1b 00 3d bc c4 57 10 bf 4f 16 82 3e
       0.5167511 -0.01153567 -0.5638392 0.25407645
0000f0 42 6a d7 be e0 9b cf bc 8d 04 71 be f4 54 ba be
       -0.42073256 -0.025342882 -0.23536892 -0.3639294
000100 45 14 66 be 83 80 4a 3e f7 53 5c bd 96 9f 64 bc
       -0.2246867 0.19775586 -0.053791013 -0.013954064
000110 28 31 ed 3d 39 61 9e be 3b 02 cf 3e e9 25 9e be
       0.115816414 -0.3093355 0.4043139 -0.30888298
000120 2d 82 11 be b2 49 08 be 3d 5a 7c bd 05 70 8a 3e
       -0.14209814 -0.13309363 -0.061609495 0.2703859
000130 cc 6d 37 bb 06 34 0b 3e 4f 82 27 be 45 db fc 3e
       -0.0027989028 0.13594064 -0.16358303 0.4938604
000140 96 ca 04 3e 8e 76 9f 3d ee de 26 be 3b 71 56 be
       0.12967905 0.077862844 -0.16295978 -0.20941631
000150 93 63 26 be 94 08 87 bd cc a6 76 be f2 ba 44 3e
       -0.16248922 -0.06593433 -0.24087065 0.19211939
000160 36 c5 e0 3c e2 88 18 be 4b a1 9a bd d8 16 bb be
       0.027437788 -0.14895967 -0.075502954 -0.36540866
000170 bc d3 00 bd 99 da c6 3e 27 62 6a be 05 73 91 3e
       -0.031451926 0.38838652 -0.22889005 0.28408065
000180 6b 4c b3 3e 92 a9 7c be 87 4b c7 3d 5d 14 e9 3e
       0.3501924 -0.24674061 0.097312026 0.45523348
000190 50 94 89 3e b7 d3 8e be 98 61 b6 3e 6e 9f a0 3e
       0.26870966 -0.278959 0.35621333 0.31371635
0001a0 2c 5d a7 be 12 82 f1 bc 85 39 d1 3d 6a 17 12 3e
       -0.32688272 -0.029480968 0.10216049 0.14266744
0001b0 4f d9 30 bf f7 04 fd 3d 74 c8 9e bd bd e0 42 be
       -0.69081587 0.123544626 -0.07753077 -0.19031043
0001c0 fe ef fc be ae 2e ba bd 5f 79 1e be b5 9b c1 be
       -0.4940185 -0.09090935 -0.15475987 -0.37814108
0001d0 46 32 58 be 40 f4 00 3d b1 ab 93 3e a3 69 04 be
       -0.21112928 0.031482935 0.28841928 -0.12930922
0001e0 51 46 8f 3e 39 a0 92 be ee fa 6f be cc 85 88 be
       0.27983335 -0.28637865 -0.23435566 -0.2666458
0001f0 2f f8 26 be a9 84 16 3d 67 98 68 be 09 40 8c 3d
       -0.16305612 0.03674761 -0.22714387 0.06848151
000200 9c 74 c8 be 24 8b 00 3f d0 98 9d bd 33 e0 14 be
       -0.39151466 0.5021231 -0.07695162 -0.1453865
000210 bc 1d 6a 3e fd f6 3c 3e 85 d1 89 3d 4b 41 b6 be
       0.22862905 0.18453594 0.06729416 -0.3559669
000220 7c 66 32 be 3a ff 49 3e 97 87 f7 3d e7 45 86 3e
       -0.17421907 0.19726267 0.120864086 0.26225206
000230 e7 86 dd 3e 58 61 b6 be 8c 04 e6 bd 21 42 b5 bd
       0.43266985 -0.35621142 -0.11231336 -0.08850504
000240 6f 72 9c 3e 8b ed e1 3d 04 a8 c8 3e 78 76 64 be
       0.30556056 0.11031636 0.39190686 -0.22310817
000250 8f d2 f1 3e e8 6f 9f bd 6d bd 8b 3d d3 6a 30 bd
       0.47230956 -0.07785016 0.068232395 -0.043070626
000260 bf 7c 21 be 37 db 36 be d6 c5 d2 bd c0 6e 54 be
       -0.15770243 -0.17857061 -0.102916405 -0.20745373
000270 28 bc 8e 3d 62 51 f9 bd af 85 b9 3d eb e9 e4 bd
       0.06969482 -0.12173726 0.09058701 -0.11177429
000280 99 fe 95 be 30 bd 9b be ff 54 a0 be 27 07 84 be
       -0.29295805 -0.30417776 -0.31314847 -0.25786707
000290 a9 f5 e4 3d a6 df 04 be 37 67 dd 3e eb ad 2c 3d
       0.111796685 -0.1297594 0.4324281 0.04215805
0002a0 00 5c 93 be 5f 23 a2 bd f4 94 d0 be fd ee 4a be
       -0.28781128 -0.07916903 -0.40738642 -0.1981773
0002b0 87 98 a6 bc 75 82 48 be 98 0f 2f be 58 6c c2 3d
       -0.020336403 -0.19581015 -0.17095792 0.09493321
0002c0 84 2b ae bd 4b 05 6c 3e 7c 32 c1 be f9 34 80 3e
       -0.08504394 0.23048894 -0.3773383 0.25040415
0002d0 f4 fc 0c 3f e4 15 8e 3e c5 39 e5 bd 33 45 88 3d
       0.55073476 0.27751076 -0.11192659 0.06653824
0002e0 d0 6f 84 3b 06 50 78 be 65 61 0c 3f 01 f2 76 be
       0.0040416494 -0.24249277 0.5483611 -0.24115755
0002f0 c6 50 17 bf 2a 90 07 3d f3 dc 7d 3d b3 c4 be bd
       -0.59107625 0.03309647 0.06197829 -0.09314861
000300 a8 de f9 3d 67 bf bb 3e cd 1f 9a 3e 0f 1e 72 bc
       0.122006714 0.36669466 0.30102387 -0.014777674
000310 3d ab 40 be 2c 65 6c be b6 0d 7d 3d 60 3e cf 3d
       -0.18815322 -0.23085469 0.061780654 0.10119319
000320 56 e9 3c be 93 df a6 3c 8d ea c7 bd d5 e9 c4 3e
       -0.18448386 0.02037028 -0.09761534 0.3845965
000330 0e d5 ab 3d 38 6f d5 3b 40 49 2b be 73 a9 df bd
       0.08390246 0.0065135024 -0.16727161 -0.10920992
000340 a4 26 e4 3d 03 00 3e be c0 b5 30 3d 63 3f 87 3e
       0.111401826 -0.18554692 0.04314208 0.26415548
000350 82 84 6a 3e 13 33 cb 3d fe 6f 2f 3e 54 9d 91 3e
       0.2290211 0.09921851 0.17132565 0.28440344
000360 8c 1f 26 bd 0c db 9b bd b7 a6 83 3e 2c 8e 98 be
       -0.04055743 -0.07610139 0.2571313 -0.2979597
000370 47 00 25 3e e8 86 2c ba ad 26 72 be 99 03 a5 3e
       0.16113387 -0.0006581382 -0.23647566 0.32229307
000380 55 df b3 3e 1c 09 85 3e ea 2a 2a be a0 5a a3 3d
       0.35131326 0.25983512 -0.16617933 0.0797627
000390 fd be 10 bf 57 7a 20 be 95 b4 96 bd 75 c8 60 3d
       -0.56541425 -0.15671669 -0.07358662 0.05487867
0003a0 34 3d c2 3e 58 c5 d5 3d 77 c2 4f 3e c0 dd 2c be
       0.3793732 0.10438031 0.20289026 -0.16881466
0003b0 56 4c 8a 3e ef 74 ef bd 32 03 d1 3d 31 59 2d be
       0.27011365 -0.11692225 0.102056876 -0.16928555
0003c0 72 59 dd 3e ca 0c 4d 3d 4a 14 eb 3c 15 8a b2 be
       0.43232304 0.050061025 0.028696198 -0.34870973
0003d0 a8 dc 17 3e ec 3a 2d 3e 3a 03 31 3e 7b a3 4c be
       0.14830267 0.16917008 0.17286387 -0.19984238
0003e0 f4 80 9a bd b5 8a 92 bc 79 4c 1e 3e 2c 85 4a 3e
       -0.07544127 -0.017888406 0.1545886 0.19777364
0003f0 fe 17 b3 3e dc 1b 82 be 7a 60 b2 3e 74 07 c3 be
       0.34979242 -0.2541188 0.3483923 -0.38091624

fc1.bias f4 [50]
000000 97 f4 f3 bd 1e 00 8a bc 1c 09 23 3e 68 b0 db bd
       -0.11911886 -0.016845759 0.15921444 -0.10727006
000010 97 58 8d be 13 a7 87 bc af c4 7e 3e 74 ea 93 bb
       -0.2760665 -0.01655916 0.24879716 -0.004514033
000020 03 c8 77 be 55 0d 06 be 23 d1 8a 3e de 0c 13 3e
       -0.24197392 -0.13091023 0.27112684 0.14360377
000030 b7 43 80 3e 2d 74 cc 3d 22 f4 e8 be 38 70 99 be
       0.25051662 0.09983096 -0.4549876 -0.2996843
000040 35 9e a4 3e 3a ae b4 3e 11 7e 83 bc 23 f1 e9 bb
       0.32151952 0.35289174 -0.016051324 -0.0071393414
000050 be 76 f5 bd 8a 35 79 be 81 31 34 bd 32 ca 24 be
       -0.11985539 -0.2433683 -0.043992523 -0.16092756
000060 d9 0a 20 3d 48 b5 a1 be 59 4e 6c bc 47 5b 2d 3e
       0.039072845 -0.3158362 -0.014422976 0.16929351
000070 d1 94 9d bd d9 e2 ca be 0f 78 c2 be 19 4d bc bd
       -0.076944 -0.39626196 -0.37982222 -0.09194393
000080 05 7b e1 bc c9 b2 8a bd f1 0d 98 3e 8e 05 a3 be
       -0.02752448 -0.06772382 0.29698136 -0.31840175
000090 f6 e8 08 be 63 be a1 3b 44 2d 88 3c 85 af 2d be
       -0.13370118 0.004936026 0.016623147 -0.16961487
0000a0 90 66 2f be 19 cf 0b 3e 4f eb 6c 3d 07 fe 00 3e
       -0.17128968 0.1365322 0.057841595 0.12596904
0000b0 82 20 8d 3d ed 70 74 bc 90 cf 05 3c 63 48 fd bd
       0.06890966 -0.014919502 0.008167163 -0.12367322
0000c0 a2 22 b5 3c 00 11 39 bd
       0.02211124 -0.045182228

fc2.weight f4 [100, 50]
000000 6a 7a 59 bc 54 14 26 bc da d7 83 3d e0 a3 0e 3d
       -0.013273815 -0.010136683 0.06437655 0.034824252
000010 3d 19 0d bd ae 7e 3e be f1 f0 f3 bd f6 6a 90 3e
       -0.034447897 -0.18603012 -0.1191119 0.28206605
000020 83 32 bb 3d 23 92 d4 bd 35 27 ad 3d 80 54 41 3e
       0.09140494 -0.10379436 0.08454744 0.1887989
000030 71 92 b2 3e 3c 06 0b 3e e0 e8 35 3e ad 00 97 bc
       0.3487735 0.13576597 0.17764616 -0.01843294
000040 31 70 4f be c2 81 1f be 14 f2 88 3e 9b 53 51 bd
       -0.20257641 -0.15576842 0.2674719 -0.051105123
000050 c5 da 4d be de 3d 85 bd 9c f6 10 be bf 40 31 be
       -0.20102985 -0.06505941 -0.14156574 -0.17309855
000060 29 8e 7d 3e 62 28 47 3d 65 06 f7 3d 68 89 0f 3d
       0.24761261 0.048622496 0.120617665 0.03504315
000070 41 61 59 3d 9d 87 b2 bd 94 9e a2 3e c6 d0 8c 3d
       0.053071264 -0.087172724 0.3176161 0.06875758
000080 ca c4 46 be 1f 08 4e be 8a 12 7a be 46 00 6d bd
       -0.19411007 -0.20120285 -0.24421135 -0.05786159
000090 8b 58 e1 3d 3d 08 2e 3e d9 79 88 be 23 68 73 3e
       0.11003216 0.1699533 -0.26655462 0.23770194
0000a0 dd e1 88 bc 36 27 1a be 76 a9 7f 3e ae ae c7 3e
       -0.016709263 -0.1505402 0.24966988 0.39000458
0000b0 14 4c 91 3e 85 02 74 3e 5b 64 9c bd a8 2b 1f 3d
       0.28378356 0.23829086 -0.07636329 0.038859993
0000c0 b4 84 77 be ae 8f 19 3d 33 45 53 bd c2 7c d3 3d
       -0.24171716 0.03749054 -0.051579665 0.1032653
0000d0 d3 5a 24 3d 52 d1 c9 3d 8a d0 fb 3c aa 85 bd 3e
       0.04012568 0.09854378 0.030739088 0.3701604
0000e0 c3 ac 0f 3e 4f b9 b9 bc 71 09 49 bd d4 fc 8b 3d
       0.14030747 -0.02267137 -0.04908127 0.068353325
0000f0 d2 f1 4d be 98 c5 15 bd 75 09 3c be 8d 9f 1a bd
       -0.20111778 -0.036565393 -0.18362983 -0.037749816
000100 71 9c 24 3e ae 5e 1f bd 49 b6 1f be 61 e9 04 3e
       0.16075303 -0.038908653 -0.1559688 0.12979652
000110 88 1e 6e 3e ab c4 ca bd 2a ef 0a bd fd a3 3d be
       0.23253834 -0.09900793 -0.03391949 -0.18519588
000120 c4 8d ae 3d 6e a6 3b bd f0 5d 2e 3d ce b0 25 be
       0.085231334 -0.045813017 0.042570055 -0.16180727
000130 fe 8b 26 bd 46 8a 0e be 2b e3 f1 bd fb 6a d5 bc
       -0.04066085 -0.13919935 -0.11810907 -0.026051989
000140 3c 05 73 be 05 d5 80 3c 08 38 ed bd d7 82 78 3e
       -0.23732466 0.015726576 -0.11582953 0.24268661
000150 55 49 31 3e 02 d8 ee 3c 2d 6d 4b bd 52 66 8e bd
       0.1731313 0.029155735 -0.049664665 -0.0695311
000160 08 6f 75 bc 59 ff 43 bc 2b ce 49 3e ea 51 58 bd
       -0.014980085 -0.011962735 0.19707553 -0.052812494
000170 70 ca f3 bb 22 7b b2 bc dd 7e 87 3d 60 00 b0 3d
       -0.007439904 -0.02178723 0.06615994 0.085938215
000180 0f b0 fb 3a 8c ab 96 3d a2 19 4d bd d6 db e5 be
       0.001920225 0.07356939 -0.050073273 -0.44894284
000190 c8 68 39 be 34 1b ca 3d be b1 da bd ce 06 6b 3d
       -0.18106377 0.0986847 -0.10678433 0.057379536
0001a0 7f 92 fd 3d a3 fc e3 3d 0a 1b 1e be 18 0b 0e be
       0.123814575 0.11132171 -0.15440002 -0.1387142
0001b0 51 03 55 bc 1c 4b 2f bd 63 cb fb 3e 1d 16 63 3d
       -0.013001279 -0.04279624 0.4917861 0.05544101
0001c0 23 32 9c be 8c a4 af 3d 24 af 1e 3e 5e fc 64 3d
       -0.30507 0.08576307 0.15496498 0.05590474
0001d0 75 58 84 be 6f 67 4d 3e 43 57 d2 bd d3 bd 5f 3e
       -0.25848737 0.20058988 -0.1027055 0.21849756
0001e0 66 46 b7 bd 2b 51 c7 bd 7c 86 9f bc 7a 95 64 3e
       -0.08948974 -0.097322784 -0.019473307 0.22322646
0001f0 87 d0 0e 3e 5c f0 af be 42 52 a5 3e 14 12 a2 be
       0.13946734 -0.34363067 0.3228932 -0.31654418
000200 97 04 6c 3e 82 c4 0c 3e 56 5d 49 3e be 49 c3 3c
       0.23048626 0.13746837 0.19664511 0.023838874
000210 66 9d 98 3b 16 15 8f 3c 3e b8 93 3e 62 e2 1b 3d
       0.004657435 0.01746611 0.28851503 0.038057692
000220 16 30 b6 3d 98 a9 30 be ac df c3 bd bd fa 67 3d
       0.088958904 -0.17252195 -0.095641464 0.056635607
000230 75 49 bf bc 66 5c d2 bd 12 0c 39 bc 40 97 24 bd
       -0.023350457 -0.1027153 -0.011294382 -0.040183306
000240 d2 c7 0f be 99 a1 0a 3d e7 49 b9 3d fd be 36 3d
       -0.14041069 0.033845518 0.09047299 0.044615734
000250 bc 93 a4 3d dd f7 07 3f 46 b5 56 be 37 f2 25 be
       0.080359906 0.53112584 -0.20967588 -0.16205679
000260 25 31 ad 3d e5 d3 c2 bd 6f e2 73 bd 6c 07 ca bd
       0.08456639 -0.09513072 -0.059542116 -0.09864697
000270 94 52 f3 bd c8 dd c8 3d 2d d1 db 3d ea ea ed 3d
       -0.11880985 0.098079264 0.107332565 0.11617072
000280 ea ba 3a 3e d9 81 cc bd a4 30 b0 be 52 ed 87 bd
       0.18235365 -0.09985704 -0.3441211 -0.06637062
000290 fb f7 01 3e b1 bd 10 be da f3 2f bc f5 7d 59 3d
       0.12692253 -0.14134862 -0.010739291 0.053098638
0002a0 8b 2b 1d be 9e c7 fe 3d 11 31 1d 3e 90 c1 52 bd
       -0.15348642 0.12440418 0.15350749 -0.051454127
0002b0 b9 58 3d 3e 8f 30 60 bd ad 30 9b bd a4 65 8b 3d
       0.18490876 -0.05473381 -0.075776435 0.06806496
0002c0 e6 e6 d3 bd 13 85 e6 3d 67 dd 08 3e b6 dc 22 be
       -0.10346775 0.11255851 0.13365708 -0.15904507
0002d0 f1 ab 26 be 3b 35 f5 bd cf 08 9d 3e b8 65 68 3e
       -0.16276528 -0.119730435 0.30670783 0.22695053
0002e0 df 47 22 be 80 5f d5 3d 0e 6a 23 be 34 c7 ef 3a
       -0.15847729 0.10418606 -0.15958425 0.001829362
0002f0 79 87 1b bd 87 7b a4 bb 06 fd c1 bd b8 e4 99 3d
       -0.037970994 -0.0050196084 -0.094720885 0.07514328
000300 f7 ba f7 bd 4d d2 bc bc 25 b7 72 3e 18 c8 5c 3e
       -0.120962076 -0.023049498 0.23702677 0.21560705
000310 52 d5 22 bd bf 94 94 3c d2 c7 35 be ef dc 69 bd
       -0.03975422 0.018137334 -0.17752007 -0.057095464
000320 4d 0f ae be a4 bc 5d be 57 f6 db bd 99 80 4a 3e
       -0.3399605 -0.21653992 -0.10740345 0.19775619
000330 7e 3e ec bc b1 48 b6 be a6 39 52 be df 3b 03 be
       -0.028838392 -0.35602334 -0.20529804 -0.12815808
000340 e0 bb 3c bc ae 81 cb 3d 21 02 0e 3e f3 eb 82 bd
       -0.011519402 0.09936844 0.13868 -0.0639266
000350 d2 7d 89 3d 4b 19 d5 bc 34 35 ae be 34 02 12 3e
       0.067134514 -0.026013037 -0.34024966 0.14258653
000360 38 fe 04 bd d6 56 bc 3d 68 d4 ac be 02 3f d9 3d
       -0.032469004 0.0919625 -0.33755803 0.10607721
000370 90 1a 53 3e 84 50 41 3e 92 01 8a 3d 6a 4a af 3d
       0.20615602 0.1887837 0.06738581 0.08559115
000380 51 83 ba bc fc d0 c0 3e 4f 28 10 3e 05 c9 47 3e
       -0.022767695 0.37659442 0.14077877 0.19510277
000390 f1 5e 6a 3e 9f bf fe 3e 37 fa 1e bd f7 db 10 3e
       0.2288778 0.4975557 -0.038812842 0.1414641
0003a0 de 25 ae bd 22 51 02 3f 27 14 11 3d 68 16 3d 3e
       -0.08503316 0.5090505 0.03541961 0.18465579
0003b0 5f 0b 85 3e 3f 10 a1 3e 5f 80 a8 3e df 82 66 bd
       0.25985238 0.31457707 0.3291044 -0.056277152
0003c0 49 c8 9b 3e d3 50 84 be 22 e1 95 3e 5e 14 b9 3e
       0.30426243 -0.25842914 0.29273325 0.3614835
0003d0 e2 45 6a bd 17 48 78 be 08 75 12 3e 5d 0a a6 3c
       -0.05719555 -0.2424625 0.14302456 0.020268613
0003e0 ed 93 8a bd fe f9 7b 3e b4 36 35 3c 75 95 23 bd
       -0.06766496 0.24607083 0.0110604055 -0.039937455
0003f0 b6 9c c9 3d a5 ff 44 bd 5e a0 ec 3b 31 1e 0a bd
       0.09844343 -0.048095364 0.0072212657 -0.0337202

fc2.bias f4 [100]
000000 53 a9 d5 bb b5 41 6c 3d b9 7c 9a bc c2 c1 a2 3d
       -0.006520429 0.05767985 -0.0188583 0.079471126
000010 a9 b9 8a bd c3 de c1 bb 70 3b da bd 6f 22 e6 3c
       -0.06773693 -0.005916448 -0.10655868 0.028092591
000020 86 13 08 bd 67 b6 6e bc 2a 69 4f 3d 27 9c b1 bd
       -0.033221744 -0.014569855 0.0506374 -0.08672362
000030 92 25 e0 3d 0f 1f ad bc 51 ea f1 bd 81 96 26 bd
       0.10944666 -0.021132974 -0.118122704 -0.040670875
000040 ce cb 14 3d 58 ce bb bc 7e 5e 92 bc b4 95 af 3d
       0.036327176 -0.02292554 -0.017867323 0.085734755
000050 07 15 74 bb 44 58 3e bd 79 da eb 3d 76 a2 cf bd
       -0.0037243979 -0.046470895 0.1151628 -0.10138409
000060 c9 56 3e 3d 37 c0 2e bc d6 56 65 3d 9d e8 a2 bc
       0.046469484 -0.010665945 0.055991016 -0.01988631
000070 55 6b bd 3d 64 a0 a2 3d a2 1f 59 bd f2 48 dc bc
       0.092489876 0.07940748 -0.053008683 -0.026890252
000080 b0 90 32 3e b3 56 03 3e 4b 7c ef 3d 0e 87 30 3d
       0.17438006 0.12826042 0.11693629 0.04309755
000090 f5 ae d1 3d 9f a9 b7 3d 3d 76 92 3e 8f 54 e3 bd
       0.102384485 0.089678995 0.28605834 -0.11100113
0000a0 a7 38 d6 3d 7b c8 26 3d 5f 10 81 3d a0 63 34 3d
       0.10460024 0.040718537 0.06301951 0.044040322
0000b0 64 03 a5 bc db b6 26 3c 02 c5 f4 3c 13 f2 96 bd
       -0.020143218 0.010175432 0.029879097 -0.07370391
0000c0 3c 99 21 3e 43 99 40 bc 9f fb 26 3d 83 af ea 3c
       0.1578111 -0.01175529 0.04076731 0.028648144
0000d0 1a 71 da bd 68 b8 52 3d 10 fe 2c 3d 5d 61 af 3d
       -0.10666104 0.051445395 0.04223448 0.085634924
0000e0 40 5e 1b 3d 63 c3 32 3d 66 7c 83 3c d2 33 94 bc
       0.03793168 0.043643367 0.016050529 -0.018091116
0000f0 8e 37 47 3e 83 5b cd 39 cf 8a c1 bc cb f6 f2 3d
       0.19454786 0.00039168829 -0.02362576 0.11863478
000100 c3 79 b3 3c 24 54 dd bc 79 99 de 3d 9c 7f 88 3c
       0.021908646 -0.02701766 0.10869116 0.016662411
000110 6b 38 38 bb b1 2e 78 3d 8e f4 61 3e 40 b5 bc 3c
       -0.00281098 0.060591403 0.22065946 0.023035645
000120 4f 4f 66 3e 3e c5 09 3d 35 c8 6c bc 3a ca 94 bd
       0.22491191 0.03363537 -0.01445203 -0.07265134
000130 84 21 9e 3d e3 a5 cf bc 7a 88 93 3e 10 c6 9f 3b
       0.07721236 -0.025347656 0.2881506 0.004875906
000140 80 64 cd bc 7f 13 5a 3c dc 8f 7b 3d 9f f8 ef bc
       -0.025072336 0.013310312 0.061416492 -0.029293356
000150 94 84 cd 3d 16 c4 fc bc c6 ad ad 3c ab 02 61 bd
       0.10035053 -0.03085522 0.021201026 -0.054934185
000160 01 66 6b 3e f7 32 83 3d e6 dc 14 bd 47 0e 55 bc
       0.2298813 0.06406205 -0.036343478 -0.013003892
000170 69 b1 41 3e 7f f4 56 3d ca e3 12 bd ae 31 a8 3c
       0.18915333 0.052479263 -0.035861768 0.020531502
000180 9c 14 37 bd 47 88 eb bc b7 1d 8e 3d d1 43 95 3d
       -0.04469739 -0.028751506 0.069392614 0.072883256

fc1.weight f4 [50, 10]
000000 61 f4 de be cc 0c b5 be 4f 00 20 be d4 c3 f5 3e
       -0.4354582 -0.35361326 -0.15625118 0.48000968
000010 d2 f4 86 be f3 6f 4e 3e 32 4e f9 be 30 0d dc 3c
       -0.26358658 0.20159893 -0.4869247 0.026861757
000020 7d 86 f2 3e 03 ac bf be 3e 6e 56 be 40 c6 42 be
       0.4736823 -0.37435922 -0.20940492 -0.19020939
000030 26 e6 02 3e 68 8e 1e 3d 27 c2 2c be a8 c5 4d be
       0.12783107 0.038710028 -0.16870938 -0.20094931
000040 c0 a3 a1 bc 40 44 0d be bb 1f 2e be f1 4d 31 be
       -0.019731402 -0.13795567 -0.17004292 -0.17314889
000050 b5 3f 8e be ec 89 1f 3e 77 fa d2 bd ac d1 c2 bd
       -0.2778298 0.15579957 -0.10301679 -0.09512648
000060 79 1e 17 be cb 91 61 3d 2b bf 8a be b1 74 a1 be
       -0.14757718 0.05507068 -0.27098975 -0.3153434
000070 d3 0a ed bd 3b 3f 56 be 97 2f 2c be dd 47 85 3e
       -0.1157433 -0.20922558 -0.16815029 0.2603139
000080 85 a1 05 be f3 3a a2 be 76 9b 95 be 43 df 8f 3e
       -0.13049896 -0.316856 -0.2922017 0.28100023
000090 a8 4d e1 3e 24 b8 d0 3d 81 6c 36 bd 65 fa 8e be
       0.4400456 0.10191372 -0.04453707 -0.2792541
0000a0 85 43 87 be cf bb 7c 3e 00 9c d0 bd a4 bd 08 3e
       -0.264187 0.24681018 -0.10186005 0.13353592
0000b0 03 b7 7a 3e 4b 49 e8 be 04 00 87 3e 3d 7c 8e 3e
       0.24483876 -0.45368418 0.263672 0.2782916
0000c0 1c 82 19 3e d8 2f 61 bd 30 cf 49 be f6 b0 99 be
       0.14991039 -0.054977268 -0.19707942 -0.30017823
0000d0 d0 1c 35 be e4 2c 16 3e 0e d6 96 be 49 00 73 3e
       -0.17686772 0.14665562 -0.29460186 0.23730578
0000e0 7e 8f b6 bd c0 de f5 3d a2 6e db 3d 40 10 8c 3e
       -0.08914088 0.12005377 0.10714461 0.27356148
0000f0 ae 5c 2a 3e b0 5f 0a be 1c d2 0d 3e 07 3e 07 be
       0.16636917 -0.13513064 0.13849682 -0.13207255
000100 00 67 5d bb 04 44 bc 3d d0 d2 93 3c bc a5 1b 3e
       -0.0033783317 0.091926605 0.01804486 0.15199941
000110 20 b0 99 3d 30 c4 2a bd 2b 44 8b 3d 7e 5f c1 be
       0.07504296 -0.041691005 0.068001114 -0.37768167
000120 3b 60 0e bf 58 67 b0 3d 57 bb a2 be 15 95 27 be
       -0.55615586 0.08613461 -0.31783554 -0.16365464
000130 ef e2 0e bf ba 76 70 be 44 f3 14 3f e0 ed 51 be
       -0.55815023 -0.2348279 0.58183694 -0.20500898
000140 cf 4b 89 3e 5a f0 c1 bd 90 eb e3 be 34 05 8b 3e
       0.2681565 -0.094696715 -0.44515657 0.27152407
000150 2b ad 4a 3e 02 6a ce 3d d1 8b 59 be 18 58 0b be
       0.19792621 0.10078813 -0.21244742 -0.13607824
000160 28 ee bb 3e 21 9c cd 3e ff 4a ca be 86 20 c9 be
       0.36705136 0.4015818 -0.39510342 -0.39282626
000170 25 f3 8e 3e ea 10 d8 be d6 66 08 3e 3e 83 36 3e
       0.2791988 -0.42200404 0.13320479 0.17823502
000180 94 1b b2 bd 7d 6b 4b be 18 43 35 bf 57 19 8e 3c
       -0.08696666 -0.19865222 -0.708055 0.017346067
000190 d4 24 93 3e d7 5f 14 be 2e 55 91 be 8f f5 1a be
       0.28739035 -0.14489685 -0.283853 -0.15132736
0001a0 c4 ff 3e be f7 d2 3f be 48 0c b8 be 78 49 31 3d
       -0.18652254 -0.1873282 -0.3594687 0.043282956
0001b0 7c 52 c2 be 18 83 32 3d 83 78 ba 3d 40 47 80 3e
       -0.37953556 0.043582052 0.09105017 0.2505436
0001c0 e9 16 33 3e 88 6e 58 bd 9d 7b e5 be fb 1f b1 be
       0.17489208 -0.052839786 -0.44820872 -0.34594712
0001d0 4c 55 d0 3c 8c 58 d2 3d 77 d8 08 3e d8 f5 a3 bd
       0.025431298 0.10270795 0.13363825 -0.08005875
0001e0 4f ff bb 3e 28 0e 71 3c cd 34 89 bd 9c 99 e8 bd
       0.36718222 0.014712848 -0.06699524 -0.11357424
0001f0 dc ab 43 be 78 38 98 be f5 e8 da 3e 58 8b 0d be
       -0.19108528 -0.29730582 0.42755857 -0.13822687
000200 19 39 04 bf 42 d4 78 3e a5 24 ca be 22 d3 9f be
       -0.51649624 0.2429972 -0.39481083 -0.3121577
000210 d9 c3 28 bc c0 aa 09 be 6e d0 8f be 37 1a 7e be
       -0.0103006 -0.13444042 -0.28088707 -0.24814688
000220 ee e5 2b be 46 20 3d 3e e9 39 f2 3d 7c 90 ab 3e
       -0.1678693 0.18469343 0.11827452 0.3350867
000230 2a 3e d4 3e f6 f1 fe 3d 18 50 1c be e0 e4 24 3e
       0.41453677 0.12448494 -0.15264928 0.16102934
000240 29 1a 22 be 76 c8 04 3f 3c ca bf bd 6a e4 45 3e
       -0.15830292 0.5186838 -0.09364745 0.19325414
000250 46 7a 9e be 47 79 8b be 9d 5a 71 bc fb 5b 60 bd
       -0.30952662 -0.27240965 -0.014731077 -0.05477522
000260 37 ef ce be fe 86 8d be 24 f1 87 3c b2 d2 18 3e
       -0.4041688 -0.27642053 0.016594477 0.14924124
000270 ab 6f cd bd 36 b4 2f 3e 43 9c 60 3e 23 c3 62 be
       -0.100310646 0.17158589 0.21934609 -0.22144751
000280 35 1e 98 be c9 2b 76 3e d1 ce a3 be ef 94 14 be
       -0.29710546 0.2404014 -0.31993726 -0.14509939
000290 ed 0e be 3e 09 a5 1e bf ea 22 95 be d8 8a 5d bd
       0.37120762 -0.61970574 -0.291282 -0.05408749
0002a0 0e 05 9a 3e fa 13 8f be 36 5a 0a bf b4 6f 25 be
       0.3008198 -0.27944928 -0.540439 -0.16155893
0002b0 54 4b 1a bf 80 7e d2 3c 03 bc cf be 9b 05 65 be
       -0.6027119 0.025695086 -0.4057313 -0.2236542
0002c0 d8 c7 8d bb 5c f4 5d be 96 3e 10 3f 92 2d 3a 3e
       -0.0043268017 -0.21675247 0.563455 0.18181446
0002d0 ac 83 4a 3e 46 02 b5 3d d9 31 89 3e 0e b6 f9 bd
       0.19776791 0.08838324 0.26795843 -0.12192927
0002e0 0e 3a bc 3e e3 e5 d9 be ba 4b d2 3e ac 6a b7 3d
       0.36763042 -0.42558202 0.410734 0.08955893
0002f0 25 d2 3e 3e cd a0 80 be 6f 99 e0 be 57 05 ab be
       0.18634851 -0.2512268 -0.4386706 -0.3340251
000300 3b f5 3e be 5e 1f 73 3e 2b ab b4 be 64 17 70 bd
       -0.18648235 0.23742434 -0.3528684 -0.058616057
000310 58 a9 e0 be 78 b8 7d 3d a2 2f e0 be ac 57 13 3e
       -0.438792 0.0619435 -0.4378634 0.14388913
000320 24 d2 3c be b2 c3 90 be 80 d2 7a be f9 52 4b 3e
       -0.18439537 -0.28274304 -0.24494362 0.1985587
000330 a1 99 a1 bd c6 a4 22 3e 98 eb 09 3f de 7d 5e 3e
       -0.078906305 0.15883169 0.5387511 0.21727702
000340 8f ab 88 be 35 7f 9e 3e ab 97 c9 bd 5b 21 fb bd
       -0.2669339 0.30956426 -0.098433815 -0.122622214
000350 8b 34 99 be ed 0b de 3d 8f 0b ad 3e f0 02 67 be
       -0.299229 0.108421184 0.3379788 -0.22559714
000360 be ab 43 be 6e 0a 10 be 1f db c1 3c fb 82 68 be
       -0.19108483 -0.14066479 0.023664055 -0.22706215
000370 92 2e ae 3e 3e f1 90 be e0 cc 06 3f 10 85 e3 3c
       0.34019905 -0.28309053 0.52656364 0.02777341
000380 d7 8e f1 3c 31 6c 45 be 41 a2 0f be 2e 7e 69 be
       0.029487057 -0.19279553 -0.14026739 -0.2280204
000390 3b 76 0c bf 60 41 8c be e6 e1 4b be 60 13 7c bc
       -0.54867905 -0.27393627 -0.19910392 -0.015385479
0003a0 02 5c 1d be 3a 26 90 be 3c b0 32 3e c3 c7 26 3e
       -0.1536713 -0.28154165 0.1745004 0.1628714
0003b0 1a 1f fa bc 4b 23 94 3e 94 f9 72 3e 3b 23 60 be
       -0.030532409 0.28933176 0.23728019 -0.2188844
0003c0 ca 94 76 bd b9 0c 8b be 89 98 e1 3c 8a ed 6c 3e
       -0.06020049 -0.27158144 0.027538555 0.23137489
0003d0 ac 7d 44 bc 5f ba 2b bc 0f 7c bb 3d 9b 3f 20 be
       -0.011992853 -0.010481446 0.09154522 -0.15649264
0003e0 2d a7 ec 3d d2 10 da 3d 53 32 35 be 53 6d 2c be
       0.11555324 0.106477395 -0.17694978 -0.16838579
0003f0 59 c1 14 3f 33 5b 95 be 00 d5 97 3d 98 3e 76 be
       0.58107525 -0.29171142 0.074136734 -0.24047315

fc1.bias f4 [50]
000000 c5 c8 1d bc 9a 41 6a be dd 95 57 3e 85 c6 5d bc
       -0.009630387 -0.22876588 0.21053262 -0.0135361
000010 0f 15 10 be bc c5 68 be b8 d0 9f be 25 7b c5 bd
       -0.14070533 -0.2273168 -0.31213927 -0.096426286
000020 7c e0 85 3d 36 8d ad 3e 66 98 97 3e 1a b9 b1 bc
       0.065369576 0.33896798 0.29608458 -0.021694709
000030 33 92 d0 3c ce 18 3b 3e 78 9c 3b bd 9f 21 7f 3d
       0.025460338 0.18271181 -0.045803517 0.062287923
000040 f9 8c 19 3d bc f9 78 3c 8c 63 70 be 00 b1 c4 3e
       0.037487958 0.01519626 -0.23475474 0.3841629
000050 51 c8 dc 3d 43 92 55 3e 23 45 09 bd 68 77 70 be
       0.10780395 0.20856576 -0.0335132 -0.2348305
000060 64 44 3b 3d 76 55 87 bd ee 91 6b be 4c f0 5a be
       0.04571952 -0.06608097 -0.23004887 -0.21380728
000070 ce 7b 9c bc 62 2d 7c be 53 f7 47 bd ad 2b 84 bc
       -0.019102003 -0.24626687 -0.04881985 -0.016134107
000080 cb 31 d3 bd e9 f7 d3 3d eb eb 61 3e 94 5a 0d be
       -0.10312232 0.103500195 0.22062652 -0.13804084
000090 33 a2 15 be 1a 01 ee bd f2 57 dc be bf b9 dd bd
       -0.14612655 -0.11621304 -0.43035847 -0.10826444
0000a0 bb b5 c0 3e 21 4e ce bd 17 51 52 3e 24 1c d1 bd
       0.3763865 -0.10073496 0.20538746 -0.102104455
0000b0 0b cd b5 bc 17 85 cc 3d 05 f4 cd be 89 31 14 be
       -0.022192499 0.099863224 -0.40225235 -0.14472021
0000c0 5c 5c 67 be a6 56 89 bc
       -0.22593826 -0.01676495
